src/models/final_model/models/deepfm_benchmark.pth (torch, 107476 bytes, 13 tensors)

embeddings.0.weight f4 [4, 8]
000000 d9 20 17 bf eb b0 b4 be 8a 91 83 3e 38 5a 2c 3f
       -0.59034497 -0.35291228 0.25696975 0.6732516
000010 6a 37 73 3e b1 11 7b 3e d0 8f 29 3f ce 8b 47 3f
       0.23751608 0.24518467 0.66235065 0.779477
000020 1b 5f 90 be ec 91 ed be 36 c0 eb be 42 2f 4f be
       -0.2819756 -0.46400392 -0.46045083 -0.20232871
000030 93 34 21 3f 69 a8 94 3d cb a0 19 bf f5 98 1e 3f
       0.62970847 0.07258684 -0.60010976 0.61952144
000040 d2 f9 82 bf 46 20 9b 3f 9c 67 70 bc e0 4c 75 be
       -1.0232489 1.2119224 -0.01467314 -0.23955107
000050 8f 7f d3 be ba f7 ab bd 76 12 ea 3e c3 c9 40 3f
       -0.41308257 -0.083968595 0.4571721 0.75307864
000060 fe d1 5e be 02 49 a5 be 11 17 9b bf 74 6d 5c 3f
       -0.21759793 -0.32282263 -1.2116414 0.8610451
000070 16 d4 47 bf 04 eb 9d bd d3 90 a9 3d ae ce 13 3e
       -0.7805799 -0.07710841 0.08279576 0.14434311

embeddings.1.weight f4 [2, 8]
000000 d6 67 8a 3f 43 33 38 40 69 dc f4 bf ee 0e 3b c0
       1.0812938 2.8781288 -1.9129764 -2.9227862
000010 79 24 10 bf 2c f9 e3 bf ad 37 b4 3f 03 d8 d8 bf
       -0.5630565 -1.7810416 1.4079491 -1.6940922
000020 8e 53 c2 bf b8 4e 87 3d 93 2b 0f bd 88 9d 6c bd
       -1.5181749 0.06606811 -0.034953665 -0.05776742
000030 e4 3f 64 3f c4 95 e0 3f 69 b8 7a 3f a8 31 e5 bf
       0.8915999 1.7545705 0.9793764 -1.7905779

embeddings.2.weight f4 [3, 8]
000000 ed a6 a5 bd 75 8c 58 bd 7b ee 55 bc d0 f0 ac bd
       -0.08088479 -0.052868325 -0.013057346 -0.08444369
000010 f2 08 d5 3f 13 e8 17 3e eb 0c 36 3e f6 bc b8 be
       1.6643355 0.14834623 0.17778365 -0.36081666
000020 4a d1 cd bf d5 8b af 3d 0b 21 93 3d ec 52 43 bf
       -1.6079495 0.08571593 0.07184037 -0.76298404
000030 8b 1b 6c be 88 9e 08 be a3 9b ee bd 25 77 51 bd
       -0.23057382 -0.13341725 -0.11650779 -0.051139016
000040 30 c1 96 3e ec c0 0a 3e 8c b0 42 bd 81 1b ce 3d
       0.29444265 0.13550156 -0.04753165 0.1006384
000050 30 f4 0b bf 79 94 b4 3e 6a 74 d5 3e 1c f4 68 3f
       -0.54669476 0.35269526 0.4169038 0.9099748

embeddings.3.weight f4 [3, 8]
000000 7a e3 f6 be af 98 31 bd b3 a2 f4 bd 62 73 63 bd
       -0.48220426 -0.0433585 -0.11945095 -0.05552996
000010 1c f4 3c 3c 79 8c 89 bd d1 8f 8b 3c ea 2b 99 bc
       0.01153281 -0.06716246 0.01703635 -0.018697698
000020 f4 0b 8c 3f 85 17 a2 3e dd 36 06 3e 0a a1 80 be
       1.0941148 0.3165857 0.13106866 -0.25122863
000030 de 41 23 3e 5d d5 21 bf 6e 4e 66 3d 61 6a a8 be
       0.15943095 -0.6321619 0.05622714 -0.3289366
000040 3b 5f e6 3e 0a fe 2a be 1c 84 5f be 60 22 54 3f
       0.4499453 -0.1669847 -0.2182774 0.8286495
000050 70 e6 9b bd 6a 4b 8e 3e 37 f2 19 3d f3 2d 57 bc
       -0.07612312 0.2779191 0.03758451 -0.013133514

embeddings.4.weight f4 [620, 8]
000000 85 2b 00 bd 63 20 85 3f dd ca 0b c0 b2 7c 4b 3f
       -0.031291503 1.0400509 -2.1842568 0.79487145
000010 23 d4 88 be aa 64 96 3d 5a 1b cf 3f 2e d3 d7 bd
       -0.26724347 0.07343419 1.6180222 -0.10538326
000020 94 ef 40 3d 73 de 81 3e 78 0d fd bf 7e a1 88 3f
       0.04710348 0.25365028 -1.9769735 1.0674284
000030 53 e1 fd bf 14 42 9b 3f 69 a9 a8 bf 08 3f e4 3e
       -1.9834388 1.212954 -1.31767 0.4457934
000040 7b ab 2c 3f af 7d 44 bb ea 2f 7b 3f 82 6c 04 bf
       0.6744916 -0.002998214 0.98119986 -0.5172807
000050 4c 4d 78 3e af 73 3d 3f 08 33 0c 3c fd da 04 3f
       0.24248236 0.74004644 0.008557089 0.5189665
000060 5c f7 fa be ec 2b b1 be b4 7b 5f bf ee 4e af be
       -0.49016845 -0.34603822 -0.8729813 -0.34239906
000070 4d 92 77 bf de e3 c4 3e e8 7b c3 3f 78 24 5a 3e
       -0.9670761 0.384551 1.5272188 0.21302974
000080 04 9b a8 bf 27 88 47 40 28 24 02 3e d9 37 38 bf
       -1.3172307 3.117685 0.12709105 -0.71960217
000090 86 9b ab 3f 40 e3 20 bf fe 02 4d bf 1c 3c 79 bf
       1.3406837 -0.62846756 -0.8008269 -0.97357345
0000a0 81 29 1a 40 3b ab 94 bf ff b2 67 c0 e3 51 a8 bf
       2.4087832 -1.1614755 -3.6203 -1.314999
0000b0 a2 f8 b4 bf 27 19 13 40 6d f1 03 3f 91 f1 05 bf
       -1.4138377 2.2984102 0.5154026 -0.52321726
0000c0 dc 2c 0f bf 50 ae 00 c0 68 a3 2b c0 1c 74 25 3f
       -0.55927825 -2.0106392 -2.6818485 0.64630294
0000d0 46 80 22 bf 6c ec 44 40 8e de f1 bf 0e ce 0b c0
       -0.6347698 3.07693 -1.8896043 -2.1844516
0000e0 31 01 c7 3f 86 55 22 3f 6d 95 b9 3e 2c 65 3d bf
       1.5547239 0.6341175 0.36246815 -0.739825
0000f0 d4 38 05 c0 1b 74 b9 be 14 17 5c 3f 8f 72 fc bd
       -2.0815935 -0.36221394 0.85972714 -0.12326538
000100 bc 43 06 40 1a eb 8f 3e 86 49 02 c0 67 9e 24 bf
       2.0978842 0.28109056 -2.0357375 -0.643042
000110 98 31 a6 bf 15 c9 f8 3f d8 19 13 40 55 01 2d bf
       -1.2983885 1.9436365 2.2984524 -0.6758016
000120 90 ed cc bf 09 9d 21 40 68 5e 64 c0 05 e2 70 40
       -1.6009998 2.5252097 -3.568262 3.7637951
000130 87 8a c9 3e 8b 08 93 3f 1c bf 74 3f ed d6 30 c0
       0.393635 1.1486982 0.9560411 -2.763118
000140 d4 20 cb 3f 32 30 36 c0 73 a2 93 3d 52 fb a3 40
       1.5869393 -2.8466916 0.07208719 5.1244287
000150 61 2f a9 3f 5d 41 d1 3f 73 83 de 3e 5a ae 33 bf
       1.3217584 1.6348072 0.43459663 -0.70187914
000160 c6 6c 60 3e 5c b5 61 bf 8a 52 a9 3f 99 99 bd 3f
       0.21916494 -0.8816736 1.3228314 1.4812499
000170 5e e1 69 3f f3 6b 8f c0 3b 84 87 bf e8 3d f3 3e
       0.9135951 -4.4819274 -1.0587229 0.47508168
000180 e3 78 40 bf 1c 12 ef bd 1d 0a 1d 3f 9e 9d 4d be
       -0.7518446 -0.11673376 0.61343557 -0.20079657
000190 33 09 ec be 63 53 91 3e bd 5a 0d bf f1 73 9a bd
       -0.46100768 0.28383932 -0.5521658 -0.07541645
0001a0 55 21 00 41 6a d9 12 c1 cd b0 05 c1 ad d7 ac bf
       8.008138 -9.17808 -8.355664 -1.3503319
0001b0 99 b8 6c 40 be e4 21 3f 0b f3 fa c0 11 f3 07 c1
       3.698767 0.6323966 -7.8421683 -8.496842
0001c0 72 62 a1 3f ff c7 03 40 48 5f c9 3d 33 d9 b9 3e
       1.2608168 2.0590818 0.098326266 0.36298522
0001d0 44 dc 77 3f ca 7a 32 be 83 be 19 40 f9 5c 47 bf
       0.96820474 -0.17429653 2.402253 -0.7787624
0001e0 de 78 59 3e 08 6d f4 3d bf 83 d0 3f 31 52 79 be
       0.21237513 0.119348586 1.6290206 -0.2434776
0001f0 e3 f3 9c bf 69 7e 50 bc 59 51 db 3f 20 b7 ce bf
       -1.2261928 -0.012725451 1.71342 -1.6149635
000200 4b 9f a8 3f 6c 8b 95 bf f6 8b b7 bf 9b 16 4a 3f
       1.3173612 -1.1683173 -1.4339588 0.78940743
000210 66 79 2a c0 60 1b ed 3e 25 a6 c6 bf 6a 49 f9 be
       -2.6636596 0.46309948 -1.5519453 -0.48688823
000220 87 81 04 40 2a 40 b6 bf e9 5a c6 bf 8b b6 cb be
       2.0704057 -1.4238331 -1.5496494 -0.39787707
000230 e7 73 62 3e ea 70 21 3f 02 66 73 bd fa a0 f6 3f
       0.22114526 0.6306292 -0.059423454 1.9267876
000240 80 fe 02 40 12 42 06 c0 21 e7 83 c0 b5 a0 16 40
       2.0467834 -2.0977826 -4.121964 2.3535588
000250 ee 1f c2 40 2d 5b f6 3f 01 b7 df 3f 05 36 3a c0
       6.0663977 1.9246575 1.7477723 -2.909547
000260 ee 20 86 3f d3 2e 1c bf 26 d0 12 be 8f b8 11 bf
       1.0478799 -0.6100895 -0.14337215 -0.5692224
000270 59 0b e8 bf 69 e5 8c 3f d9 85 0f c0 c5 c8 46 3e
       -1.8128463 1.100751 -2.2425444 0.19412525
000280 21 08 a6 3f a4 9d 01 c0 54 33 a7 bf 56 81 28 bf
       1.2971231 -2.0252466 -1.3062539 -0.6582235
000290 5c 23 50 40 04 68 9b bf 37 1a 00 c0 91 6d 14 c0
       3.2521582 -1.2141118 -2.0016 -2.3191874
0002a0 c6 7f da bb 28 6c cb bf e4 a8 f1 bf c5 d1 bc 3e
       -0.006668064 -1.5892382 -1.8879666 0.3687879
0002b0 48 be 9e bf a4 ee 10 3f 31 56 23 bf e2 e6 b2 be
       -1.2401819 0.56614137 -0.6380339 -0.34941775
0002c0 e3 eb c7 3f 36 5c ea bf 7a e8 20 c0 79 be cc 3f
       1.5618862 -1.830939 -2.5141892 1.5995628
0002d0 b6 27 b6 bf 53 bc d6 3f a3 bf a5 3f eb 93 6f 3f
       -1.4230869 1.6776222 1.2949108 0.9358508
0002e0 af e8 dc 3f 9d f4 ec bf a1 b8 9f c0 2c e9 01 c0
       1.7258509 -1.851215 -4.9912877 -2.0298567
0002f0 f6 a2 1c 40 57 db de 3f 84 ed 6d 3f 98 9a e4 bf
       2.4474463 1.7410687 0.92940545 -1.7859678
000300 a0 37 8a be 31 b7 39 bd 95 50 33 3f d3 2f 00 bf
       -0.26995564 -0.04534072 0.70044833 -0.50072974
000310 13 89 27 40 d4 ac 5b c0 a8 b3 1e 3e 74 7b 74 3e
       2.6177413 -3.4324236 0.15498221 0.23875219
000320 8b 48 92 40 dc 60 ad c0 c2 b3 9d c0 d2 bc 3f 40
       4.5713553 -5.4180737 -4.928193 2.9958997
000330 6a 88 a8 40 db a8 56 40 48 e4 f4 3e 78 35 57 c0
       5.266652 3.3540561 0.47830415 -3.3626385
000340 33 1b 0f 40 7b 4f ee 3f 89 48 83 bf af 0a cb 3e
       2.236035 1.8618006 -1.0256511 0.39656588
000350 2b 78 9f 3f 3f 85 3c bf 71 ee ad be 29 0e 85 bf
       1.2458547 -0.7364082 -0.3397098 -1.0394946
000360 a3 a7 cf 3f 2d 04 df c0 d4 6e d7 bf 8c 94 90 40
       1.6223034 -6.9692597 -1.6830697 4.518133
000370 1b b2 21 c0 bf 63 07 41 27 5b cf be 06 06 76 c0
       -2.5264957 8.461852 -0.4049923 -3.8441176
000380 66 99 31 3f 5a fe 6a c0 ac b9 46 c0 31 c9 a4 be
       0.6937469 -3.6717744 -3.1050825 -0.32184747
000390 34 13 b1 3f 50 61 8b 40 60 50 03 c0 15 37 3f c0
       1.3833985 4.355629 -2.0517807 -2.987737
0003a0 17 27 85 be 90 6b 10 c0 ab b1 17 40 ae 59 09 40
       -0.26006386 -2.256565 2.370219 2.1460986
0003b0 8c 06 fc 3f aa aa 51 c0 9d ff 03 bf 76 55 dd 3d
       1.9689498 -3.2760415 -0.5156191 0.10807316
0003c0 97 d0 e6 3f 82 ae 2e bf f9 4b 99 bf 70 85 08 40
       1.8032407 -0.6823503 -1.197631 2.1331444
0003d0 54 aa 24 3f 30 07 09 40 18 7b 55 3f 7b f1 22 be
       0.643224 2.1410637 0.8339095 -0.1591243
0003e0 a3 9f 3c 40 7e 44 c1 bf 91 d9 d8 be c4 2c ac 3c
       2.9472435 -1.5099027 -0.4235349 0.02101744
0003f0 60 8e ed 3e b4 8b 8f 3f 85 79 18 40 f2 fd ad bf
       0.46397686 1.1214509 2.382417 -1.3593123

embeddings.5.weight f4 [24, 8]
000000 a9 57 8c 3e 5f 8b 3b 3c 84 41 59 3f b7 71 30 be
       0.2741063 0.011446803 0.84865594 -0.17230879
000010 c1 68 4f 3f 3d b6 84 3e 7a 9e 2c bd 46 de 7b 3d
       0.81019217 0.25920287 -0.042143323 0.061491273
000020 03 1f 08 be 9e 3a f0 bd bc fe 8d 3f 2f 73 1f bf
       -0.1329308 -0.1172993 1.1093364 -0.6228513
000030 c7 96 b3 3d fe f6 1c bf 0e 58 99 3d 63 6b 66 be
       0.08768993 -0.6131438 0.07487498 -0.22501902
000040 89 cb b5 3d c5 45 42 3f 79 e5 78 3f 7b e3 4a bf
       0.08876712 0.7588771 0.9722515 -0.7925336
000050 b9 08 25 be 74 80 56 3e 32 ee 4f 3e 4a 75 e3 be
       -0.16116609 0.20947438 0.20305708 -0.44425422
000060 8a fe 1d 3f 0d 4d 8d 3f 2a 27 cd 3e 76 dd 14 bf
       0.6171652 1.1039139 0.40068942 -0.5815042
000070 66 82 71 bd f2 1a 89 be 1f c5 a0 be f8 88 a9 be
       -0.05896225 -0.2677837 -0.3140039 -0.3311231
000080 77 14 83 3d 88 75 27 3f 68 61 07 3f c3 27 da bc
       0.06400388 0.65413713 0.52883005 -0.026630288
000090 8d e1 20 3f 4d 64 b8 be b6 19 4e be ab f0 8f be
       0.62844163 -0.36014023 -0.20126995 -0.28113303
0000a0 51 74 dd be 57 fb 6a 3e 00 80 dd 3c 93 4e 0d 3e
       -0.43252805 0.22947441 0.027038574 0.13799505
0000b0 23 8a 14 3f d9 ee 07 bf 56 03 c4 be 51 98 30 bf
       0.5802328 -0.5309883 -0.38283795 -0.68982416
0000c0 4b cb 7c be 4b 0e 17 3e a0 e6 0f 3e bf 18 32 3f
       -0.24686925 0.14751546 0.1405282 0.6956901
0000d0 03 af eb 3e 8a 12 68 be df c4 78 bd 02 23 47 bf
       0.4603196 -0.22663322 -0.060734626 -0.7778779
0000e0 bd c1 a7 bd 96 e9 4e 3e 25 6b 4c be df db 83 3e
       -0.081912495 0.20206293 -0.19962747 0.25753686
0000f0 77 b7 18 3a 3a 9d ed be a5 53 c4 be 49 a1 5e bf
       0.0005825678 -0.46409017 -0.38345066 -0.8696485
000100 82 f2 c2 be b6 5e 3a 3f 10 d9 2c 3d 9f 75 4a 3f
       -0.38075644 0.7280077 0.042199194 0.79085726
000110 5c 38 6c 3d 75 0c d1 be 72 3e b4 be b8 c6 e6 be
       0.057670936 -0.40829816 -0.35203892 -0.45073485
000120 54 5c e4 bd 31 a5 ef 3e bf 58 99 be 26 40 d3 3e
       -0.11150423 0.4680572 -0.2995052 0.4125988
000130 08 67 89 be 0d 8b 18 bf 1f 0e 09 3e 82 a4 0d bf
       -0.2683642 -0.59587175 0.13384293 -0.55329144
000140 21 72 30 3f 3f 98 a3 3e ec 07 8b be db 4e fb 3e
       0.68924147 0.31952092 -0.2715448 0.490836
000150 c8 e5 b9 3b c2 ad c5 be 4b 1b d8 3e c7 c3 3d be
       0.005673144 -0.3860913 0.42208323 -0.18531714
000160 22 f6 d5 3e 8b 7e 44 3e 67 a2 58 be 41 7b 08 3f
       0.41789347 0.19188897 -0.21155702 0.5331307
000170 65 94 58 be 84 d6 7e bd 28 d5 85 be 0b 14 8e be
       -0.21150358 -0.062216297 -0.26139188 -0.27749667
000180 6d 7b cb 3d b5 52 23 3f ff 5c 93 bf 72 51 5f be
       0.09935651 0.63798076 -1.1512755 -0.21808413
000190 66 fa 8c 3e 2a 1c 32 bb 15 00 53 3e db 43 9c 3d
       0.2753479 -0.0027177432 0.206055 0.0763013
0001a0 11 39 3f 3e 41 5e 3e bf c7 48 92 be 87 f9 b4 3e
       0.18674113 -0.7436257 -0.2857115 0.35346624
0001b0 1f 2e 00 bf 9d 6b 0c 3e ce f5 08 3f 21 6f 4e be
       -0.50070375 0.13712926 0.5350007 -0.2015958
0001c0 ad 9e ee 3d c4 81 38 be 9f 87 ae be 74 03 9e be
       0.11651359 -0.18018252 -0.34087846 -0.3086201
0001d0 3c 1a 32 bf ac ef ce 3e 14 ea 7e be ba b0 46 3d
       -0.6957128 0.4041723 -0.24893981 0.048508383
0001e0 c4 f3 64 3d 80 fa df 3c f5 3c f4 be 95 5a e9 3d
       0.055896536 0.027341127 -0.47702757 0.1139423
0001f0 41 c6 1c 3e 4f 0f da 3e 5f 68 7e 3d 30 a9 c0 3e
       0.15310003 0.42589805 0.062111255 0.3762908
000200 df c7 ce bc fb 58 4b be d2 94 22 3c d9 5e be 3e
       -0.02524179 -0.19858162 0.009923177 0.37181738
000210 d7 e8 e0 bd a8 0f 8e 3e 8a a0 d5 be 53 1d 0b 3f
       -0.10981911 0.2774632 -0.41724044 0.5434162
000220 47 2b 93 be b2 56 78 be 45 db e2 bc 85 a6 d3 3d
       -0.28743955 -0.24251822 -0.027692446 0.103344955
000230 07 cb 50 be 69 ef 3a 3d 94 96 50 bd fc 3d a5 3d
       -0.20389949 0.045638476 -0.050924852 0.08068463
000240 c1 35 5e be 5d c5 31 bf 40 59 fb 3d 85 49 af bd
       -0.21700193 -0.6944178 0.122728825 -0.085589446
000250 2d 4d 46 be 73 06 6e be f0 f7 38 be 09 d4 43 3e
       -0.19365378 -0.23244648 -0.1806333 0.19123854
000260 54 4c bb be b9 8e 9f be 6f 87 ab be bc 62 2a bf
       -0.3658167 -0.31163576 -0.33501765 -0.66556907
000270 18 f5 61 3e fa 6f d1 3c 5c 8d 0c 3e 74 cc c2 3e
       0.22066152 0.02556609 0.137258 0.3804661
000280 50 57 00 be 46 63 35 be 2d 94 f4 3e 3a f7 0d be
       -0.12533307 -0.17713651 0.477693 -0.1386384
000290 3c 3b d0 3e e0 ac 50 3e 6a 0e e2 3e 01 de 20 3e
       0.40670192 0.20378447 0.44151622 0.15709688
0002a0 3b 41 d0 3d 09 54 07 3d ba e4 06 3f f7 70 9a be
       0.10168692 0.033039127 0.5269276 -0.3016431
0002b0 98 8d 4c 3e c7 51 4e be 1e 20 14 bc 6e 6c f5 3e
       0.19975889 -0.20148383 -0.00904086 0.47934288
0002c0 43 d8 84 3e 29 58 e9 be df cc 9c 3e f7 40 13 bf
       0.25946245 -0.45575073 0.30625054 -0.57521003
0002d0 f0 30 e0 3e c8 24 ba be d5 ca 7f be ca 2a 7d 3e
       0.43787336 -0.36356187 -0.24979718 0.24723354
0002e0 da d7 e4 3e f7 55 ea be 96 63 e6 3e 6d de 01 bf
       0.44695932 -0.4576871 0.44997853 -0.5073002
0002f0 33 9d 33 3f 93 7b a5 3e c2 86 c4 be de f7 b6 be
       0.7016174 0.32320842 -0.38384062 -0.35735983

embeddings.6.weight f4 [214, 8]
000000 c8 f6 33 c0 6a 81 2e 40 4d 5f 97 be 2d 23 83 3f
       -2.8119373 2.7266488 -0.29564896 1.024511
000010 b0 81 82 bf 32 de 2d 3f 97 38 a6 3f 93 fe 3c c0
       -1.0195827 0.6791717 1.298602 -2.953038
000020 c3 e6 7b 3f 79 c3 1c 3f d3 ef 5a 3f b9 b0 e0 3e
       0.9839899 0.6123577 0.8552219 0.4388483
000030 38 05 af bd 50 aa 88 bf 6b 59 6a bf 36 e4 20 3f
       -0.08545917 -1.0676975 -0.9154269 0.6284822
000040 8e 11 5e c0 5f 8d 56 40 dd 4f a5 be 4f 21 3c 40
       -3.4698215 3.3523786 -0.32287493 2.939533
000050 10 a1 69 c0 1f 5e 4f 40 50 eb d9 3f b4 93 24 c0
       -3.6504555 3.2401197 1.7024937 -2.571515
000060 23 8c a2 3e 64 d3 95 3f 17 af 3c bf 05 44 03 c0
       0.3174754 1.1705136 -0.73704666 -2.0510266
000070 22 b2 c9 3f b6 fd 80 3f 0d c1 0f 40 0f 39 93 bf
       1.5757487 1.0077426 2.246158 -1.1501788
000080 50 8b 66 c0 2e 13 c0 3f 84 2d 06 40 a5 c4 b8 bf
       -3.602253 1.5005853 2.096528 -1.4435011
000090 b3 eb bd 3f fe ae ee bf 46 8e 14 3f 97 58 3f bd
       1.4837555 -1.8647153 0.5802959 -0.046715345
0000a0 dd 44 ce 3f 76 de b6 3f f2 a5 a9 3f 94 b3 2a bf
       1.6114765 1.428664 1.3253767 -0.66680264
0000b0 88 a6 1a bf 25 7e 6d 3d 79 6e a0 3f 9f 54 53 c0
       -0.60410357 0.05798163 1.2533714 -3.3020399
0000c0 99 5b 24 c0 ed 53 7f bf 03 46 28 40 a2 9e 14 bf
       -2.5680907 -0.99737436 2.6292732 -0.58054554
0000d0 f0 e2 16 40 c7 b8 ae bf 94 65 9f 3f 19 e0 63 bf
       2.3576012 -1.365014 1.2452874 -0.8901382
0000e0 b2 ab de 3f 91 83 23 40 4c a1 6a be fd 56 60 c0
       1.7396147 2.5549052 -0.22913092 -3.5053093
0000f0 fc 2e b4 3f a8 e5 1f bf d4 5a 23 40 a8 87 70 c0
       1.4076838 -0.624598 2.5524187 -3.7582798
000100 d1 cc 22 3f 31 a4 4d 3d c2 23 94 3f 3a 17 f2 be
       0.63593775 0.050205413 1.1573412 -0.47283345
000110 42 c8 8e bf 35 bb 60 3c c3 b1 ae 3f c1 64 a3 3e
       -1.1154864 0.013716509 1.3647999 0.31912807
000120 cb ea 28 3f e6 14 16 bf 16 43 63 bf 67 b2 2b 3f
       0.65983266 -0.5862564 -0.8877424 0.67069095
000130 75 b1 9b bf 6d 6f 41 3e db 93 e9 3f 11 93 13 c0
       -1.216353 0.18890162 1.8248247 -2.3058512
000140 ed 59 27 3e a7 5b 13 40 0b f0 08 be 81 13 20 3f
       0.16342898 2.302469 -0.13372819 0.6252976
000150 f9 33 c2 3e 10 af 77 3f 81 6f e1 3e c0 9b 33 3f
       0.37930277 0.967515 0.44030383 0.7015953
000160 b8 05 33 3e 4a 96 aa bf 2e a5 0e 40 74 92 46 3f
       0.1748265 -1.3327115 2.2288318 0.7756722
000170 46 6e a1 3e c8 69 23 bf 89 8a bb 3f 5b 10 fa be
       0.31529444 -0.63833284 1.4651653 -0.48840603
000180 95 fe 47 3f c8 56 d3 3f 63 3a 38 3f 3a 11 b0 bf
       0.78122836 1.6510859 0.7196409 -1.3755257
000190 0c 05 76 3f 9c 34 8e be 8e c9 08 bd 87 9b 0b be
       0.9610145 -0.27774513 -0.033395343 -0.13633548
0001a0 c0 0b 79 3e 2e 7f 10 40 1e 61 9b bf c0 e3 cf 3f
       0.24320889 2.2577624 -1.2139013 1.6241379
0001b0 77 40 3b bf 59 34 bc be a1 ab 4d 3f 54 67 95 3f
       -0.7314524 -0.36758688 0.8034001 1.1672158
0001c0 78 f7 6f 3e 3a c7 7e 3c 2c cd de 3e 70 2f b8 3f
       0.23434246 0.015550429 0.4351591 1.4389477
0001d0 fb d4 df be 4c 0e 53 be 8a a4 07 bf 06 2a 4c 3f
       -0.4371718 -0.20610923 -0.5298544 0.7975162
0001e0 2b 11 07 bf b1 cd e1 be 78 a4 bf 3e 4c 70 46 3f
       -0.5276057 -0.44102243 0.37430167 0.775151
0001f0 25 24 d2 bd 4f 59 d4 3f bc f1 b9 bf a0 a7 71 3e
       -0.102608 1.6589755 -1.4526896 0.235991
000200 66 6c 80 bf 73 d5 9d 40 03 6c 14 40 56 df 42 40
       -1.003308 4.932306 2.3190925 3.0448813
000210 f1 09 1d 40 c1 e2 eb bf 1a 50 0f 41 76 81 9c c0
       2.4537318 -1.8428575 8.957056 -4.8908033
000220 7f 37 3a bf b6 2c 5b bf db 00 8d 3f 08 71 a8 3e
       -0.7274093 -0.856151 1.1015886 0.32898736
000230 5c 90 1e bf a7 84 f7 3f 3f fb b9 3f e2 0f d2 3e
       -0.61939025 1.9337357 1.4529799 0.41027743
000240 7e 2b 57 bf 62 f1 89 3e 10 5b 04 c0 8a 71 79 3e
       -0.8405074 0.26941973 -2.068058 0.24359718
000250 c7 9a dc bf 62 2e e6 3f 07 4b ef 3f 2f d6 3c 3e
       -1.7234734 1.7982905 1.8694772 0.1844108
000260 01 01 94 c0 81 69 29 41 3e 70 83 40 ed a1 89 c0
       -4.6251225 10.588258 4.1074514 -4.3010163
000270 c9 6f 6d 40 3a e4 58 bd f9 7e 27 41 26 74 16 c1
       3.7099478 -0.05295203 10.468499 -9.403357
000280 a1 78 3c be 4e df 19 c0 72 32 ca 3c ec 09 90 bf
       -0.18405391 -2.4042544 0.024682257 -1.1253028
000290 81 65 e4 3f b2 77 d3 3f 0d 06 9a bf e8 bc 5d 3f
       1.7843477 1.6520903 -1.2033097 0.86616373
0002a0 a1 1a 05 3f 97 38 a8 be 9e fe 9b 3e 06 b9 e2 3e
       0.5199376 -0.32855675 0.30467695 0.44281787
0002b0 38 2d 05 bf 9a 38 1a 40 32 13 7a 3f dc 86 83 bf
       -0.52022123 2.4097047 0.9768554 -1.0275531
0002c0 fd 93 dc 3e 72 e6 ad 40 bf 85 ac 40 07 77 8f bd
       0.43081656 5.4343805 5.3913264 -0.070051245
0002d0 2e 0a 09 40 fa c4 78 c0 7e 7e 9a 40 a2 ad a8 c0
       2.1412463 -3.8870225 4.827941 -5.2711954
0002e0 f0 30 b1 3e 2b 80 a5 3f d6 81 2f bf 09 61 8b 3f
       0.3460765 1.2929739 -0.6855749 1.0888988
0002f0 c5 67 a3 be 49 c9 69 3f e8 bb 80 3f 99 de ab bf
       -0.31915107 0.9132276 1.0057344 -1.3427306
000300 7c c0 c5 3f 10 7e 01 3f c6 29 1a 3e e2 fa 44 bf
       1.5449367 0.5058298 0.15054998 -0.76945317
000310 c5 df 2e 3f 48 1a 1c 3f c2 bb 60 3f 09 80 4b 3e
       0.68310195 0.609776 0.87786496 0.1987306
000320 db e7 83 c0 33 9d ea 3f 8e 09 54 3f 1a 9e ba 3e
       -4.1220527 1.8329223 0.8282708 0.36448747
000330 30 ec 94 bf 21 d9 00 c0 14 aa 88 3f a2 55 cf be
       -1.1634579 -2.0132525 1.0676904 -0.4049502
000340 5b 6a 0e c0 89 ce 8a 40 1b e4 12 40 08 77 d1 bd
       -2.2252414 4.337712 2.2951725 -0.102277815
000350 ff 0a b5 bc a1 7e e0 3f 59 92 1c 40 79 78 d6 be
       -0.02209997 1.7538644 2.4464324 -0.41888788
000360 d3 63 d3 bf bf 2e d6 3f 53 58 07 3f 65 7c a2 3e
       -1.6514839 1.6733016 0.5286915 0.3173553
000370 59 f6 f3 bf 90 80 cb 3e 9c 90 9a 3f 38 bf c5 bf
       -1.9059554 0.39746523 1.2075381 -1.544898
000380 0f b9 b1 bf f3 13 6c 3e d5 f6 7d 3f 5f 41 a5 3f
       -1.38846 0.23054485 0.9920476 1.2910575
000390 fe 2d 04 3f 28 f2 01 bf f1 b2 57 3f 97 16 5f 3f
       0.5163268 -0.50760126 0.8425742 0.87143844
0003a0 79 fb ab bd b7 ae 44 3e d3 ce 13 c0 d2 9e 47 be
       -0.08397574 0.19207273 -2.3094985 -0.19494179
0003b0 e4 9d 78 3e 1a 50 e0 be 11 00 57 3f 8e 23 23 3e
       0.2427898 -0.43811113 0.83984476 0.15931532
0003c0 2e b0 b6 3f 2e 2b 0c 3f d4 e1 50 3e b9 74 ff 3e
       1.4272516 0.54753387 0.20398647 0.4989374
0003d0 ef 09 54 bf d2 fd 7b 40 ec 0c 9a 3e 0c 34 38 bf
       -0.8282766 3.937367 0.30087984 -0.7195442
0003e0 60 c4 05 c0 8e a9 e2 3f 8c 05 1e 40 26 39 b8 3e
       -2.0901108 1.7707994 2.4690886 0.359811
0003f0 f5 5c c3 3e 4c 66 41 40 3b 4d 2a 40 8d 54 08 bf
       0.38156858 3.0218687 2.6609638 -0.53254014

fm_linear.weight f4 [1, 78]
000000 a8 4d 83 3c cd 52 42 3d 80 90 05 bb ef 9c 29 bc
       0.01602824 0.047442246 -0.0020380318 -0.010352357
000010 b1 af be bb af a4 32 bd f4 32 ba 3a b2 e4 37 bc
       -0.005819284 -0.043614086 0.0014205859 -0.011223959
000020 63 58 d1 bc dc 00 c0 3c 64 ef bf bc ee e3 64 bc
       -0.025554841 0.02343791 -0.02342958 -0.013970358
000030 bb 68 19 3b 36 5a e9 3b 79 98 98 3a e6 e8 f2 3c
       0.0023408371 0.0071213497 0.001164212 0.02965207
000040 ed f9 ed 3b ef 4d 81 3c 4f 12 9b 3b 42 3f af 39
       0.0072624595 0.015784232 0.004732407 0.00033425732
000050 17 52 fe bc a5 4d de bc 3b 19 47 bd cb c8 6c 3e
       -0.031045003 -0.027136633 -0.048608046 0.23123471
000060 06 e5 7c 3e 8f 79 87 bd 05 7c 2a 3d 48 fe 08 3d
       0.2469674 -0.06614982 0.04162218 0.033445626
000070 73 84 89 3d e2 7c 16 3d aa 5c bf ba d9 2f 3b bd
       0.06714716 0.03674019 -0.001459976 -0.045699928
000080 2a 20 da 3c 35 a3 e9 3c 10 47 83 bc 4f 98 c4 3c
       0.026626665 0.028520206 -0.016025096 0.023998408
000090 fa 9d 92 bb a6 88 80 bc dc 3a 74 3e 7f 07 49 bd
       -0.0044743987 -0.015690159 0.23850578 -0.049079414
0000a0 66 e8 59 bc 95 e4 6d 3d ca e9 a3 bd 46 f3 11 3d
       -0.013300037 0.05807932 -0.08003576 0.035632394
0000b0 61 8c 1d 3d b0 e2 7f 3d 56 8d f2 3d 44 c8 c4 3c
       0.038463954 0.062472045 0.11843364 0.024021275
0000c0 05 8e 6f bc 23 8b 16 3e a1 e3 cd 3c a6 8a c2 3b
       -0.014621262 0.14701514 0.025132956 0.0059369383
0000d0 01 bc 9c 3b a2 7d 27 bd d0 d9 a2 bd e2 56 49 3b
       0.004783154 -0.040891297 -0.07951701 0.0030721952
0000e0 b3 86 cc 3c 28 47 8b 3d c0 fc ff bb 02 81 80 3b
       0.024966573 0.06800681 -0.0078121126 0.003921629
0000f0 4a ec c5 3c a9 bf 7d 3c 98 82 39 3b 00 86 3b 3d
       0.024160523 0.01548759 0.00283066 0.04578209
000100 76 5f 03 bd a4 d9 84 3c 06 78 58 bd 54 cb 00 3d
       -0.03207346 0.01621706 -0.05284884 0.03144391
000110 c6 fc 22 3d 44 42 36 3d 0b e1 46 3c f8 c1 bb bd
       0.039791845 0.04449679 0.012138615 -0.09167856
000120 68 c6 54 3c d0 98 62 bb a0 09 56 bd 31 b0 e6 bc
       0.012986757 -0.0034575947 -0.052255273 -0.028160186
000130 5d 09 0e 3d 22 84 a7 3d
       0.0346769 0.08179499

deep.0.weight f4 [128, 78]
000000 0c af a9 3e 57 07 a4 3f 35 a2 41 3e 44 8e 48 be
       0.33141363 1.281474 0.18909533 -0.1958552
000010 9d 67 fa bc 18 72 1c 3e 79 c5 bc bd 0c 7c 6d bd
       -0.030566985 0.15277898 -0.092173524 -0.05797963
000020 bf 73 9d bb 58 23 48 bb 59 e9 4b 3e 2b 0b 47 be
       -0.004805058 -0.0030538645 0.19913234 -0.19437854
000030 92 a3 ee 3d 32 dd 40 3e 7f 5e 2c be 17 ba 70 be
       0.11652292 0.1883438 -0.16832922 -0.23508488
000040 a9 72 2f 3e e8 31 ba bd e9 32 3e be c4 db ab bd
       0.17133583 -0.0909155 -0.18574108 -0.08391526
000050 8d 40 a5 3b c1 e7 c3 be 5d d9 1d 3f d0 a2 09 bf
       0.0050430954 -0.38262752 0.61659795 -0.5376406
000060 a1 b4 16 3f 4b e0 b3 3d d5 0c df 3e 72 ce 9a bd
       0.5886937 0.08783015 0.43564478 -0.075589076
000070 f6 7d 52 bc 04 a5 33 be a5 94 12 3f f4 e8 9e 3f
       -0.012847414 -0.17543417 0.57258064 1.2414842
000080 3b 06 6d bf 97 b5 00 bf 8b 64 13 bf 26 39 16 bf
       -0.9258763 -0.50277084 -0.5757529 -0.5868095
000090 3f 61 17 be f8 3b 29 3e 6c a3 b1 3e 79 f6 9d bd
       -0.1478319 0.16526783 0.34694993 -0.077130266
0000a0 f5 1e 07 bd 04 3c ab 3e 70 f3 74 be 09 68 43 be
       -0.032988507 0.33444226 -0.23920989 -0.19082655
0000b0 fa d9 94 be 00 72 7b 3d 7e 36 f6 3f db d0 ac bf
       -0.29072553 0.061388016 1.923538 -1.3501238
0000c0 fa 3e 0f 3f 6c 61 da 3f 04 6e 08 c0 77 95 16 40
       0.5595547 1.7060981 -2.1317148 2.3528726
0000d0 66 33 ba 3f 47 ec 8f 3e 5a 11 af be 89 24 d8 3c
       1.4546936 0.28109953 -0.34192926 0.026384609
0000e0 ba 55 cb 3d fc 5c 90 3e ed bb cc 3e 39 cd 4d 3e
       0.099284604 0.2819594 0.39987126 0.20097817
0000f0 7b 09 58 bc d8 6e 78 be 71 93 5b bf d7 a6 e0 3c
       -0.013185854 -0.24261034 -0.8577185 0.027423305
000100 34 d5 4d be 6e d8 d5 be 08 a8 a9 be ce 85 89 be
       -0.20100862 -0.41766685 -0.3313601 -0.26859897
000110 b9 8b 4d bd 13 45 29 3f 23 16 65 3e 67 5c 50 3b
       -0.050182078 0.66121024 0.22371726 0.0031793357
000120 26 c4 55 3e 54 c6 77 3e 08 3b e1 be 3c c2 7f be
       0.20875606 0.2419675 -0.4399035 -0.24976438
000130 ed 64 d0 3e c6 2c 05 be 97 32 24 3e 25 7b 35 3e
       0.40702 -0.13005361 0.16034923 0.17722757
000140 9c aa 2e 3e 52 ed b9 3e 08 bd 78 3e 0c ce c3 3e
       0.1705727 0.36313874 0.2429086 0.3824314
000150 3f 71 c3 3d 5f 5e a0 be 31 94 59 3e 68 ba c2 3d
       0.09543084 -0.31322 0.21247937 0.095082104
000160 f4 4d f8 39 a9 73 96 3b e4 82 50 3c ed 1c 7a be
       0.00047360326 0.0045914245 0.012726519 -0.24425097
000170 c3 3e 9a 3e ac 8a 9e be 93 4f 71 3e ca 6a 41 3e
       0.30126008 -0.30965173 0.23565511 0.18888393
000180 96 88 7f 3d d8 a5 2b 3e dd a1 88 3d cd b6 55 bd
       0.062386118 0.16762483 0.06671498 -0.052176286
000190 5a 74 42 bf 23 0f a1 3f c6 cc 43 3f 30 05 8e bf
       -0.7595879 1.2582744 0.76484334 -1.1095333
0001a0 98 c9 7f bf 9c eb fd be 12 91 84 3f 55 30 a5 3e
       -0.9991698 -0.49593818 1.0356772 0.32263437
0001b0 ca bd eb 3b cb 53 af 3e 6d 1e bb be bc 53 e3 be
       0.0071942555 0.34243616 -0.3654665 -0.44399822
0001c0 92 f9 4d 3d 5f 88 74 bd ec 5d 48 3d 05 19 a3 3d
       0.050286837 -0.059700366 0.048917696 0.079637565
0001d0 14 56 97 bc 30 32 17 bd 53 78 90 bd 5b 9a 23 3d
       -0.018473662 -0.036913097 -0.070542 0.039942127
0001e0 88 7d 2c bd 1e 6a e6 3b 54 c2 2c be 0e 70 d0 bd
       -0.042111903 0.007031693 -0.16871005 -0.10177623
0001f0 82 05 84 3f 60 68 55 3f 1b a7 a5 3e 06 25 cd 3e
       1.0314181 0.8336239 0.32354054 0.4006731
000200 ca e4 83 3e f9 cc b8 bd f1 a9 74 3e a9 89 93 bf
       0.2576049 -0.090234704 0.23892953 -1.1526386
000210 de a7 fd bd 29 0c a5 bd 5b 6e 87 3d b4 3b 6d 3e
       -0.12385534 -0.0805896 0.066128455 0.23167306
000220 f3 e2 8d 3c f8 d7 94 3e ec bb 0a bd 00 1b 30 be
       0.017320132 0.2907102 -0.033870623 -0.171978
000230 e1 1b 94 be ed 76 12 c0 2a 68 9e 3e 2d 1f 44 bf
       -0.2892752 -2.2885087 0.30938846 -0.7661007
000240 bf 87 82 3e 99 1c b4 3f dd 3a 27 bd 41 85 c8 3f
       0.2549419 1.4071227 -0.04082762 1.5665666
000250 14 63 2f 3e 65 af 0f bc 4d 76 1f bd 23 d3 0e 3f
       0.17127639 -0.008769845 -0.03893118 0.5579092
000260 a6 cb 9b 3e f3 05 10 3e bf 5d 28 bd bc 63 40 be
       0.3042881 0.1406477 -0.04110503 -0.18788046
000270 73 cd 9a bd 3c 59 4b 3e 88 e3 80 bf d4 8b df be
       -0.075587176 0.19858259 -1.0069437 -0.43661368
000280 bf 54 97 be 8e d6 42 bf 67 69 9a bf 7e 81 42 bf
       -0.29556844 -0.76108634 -1.2063416 -0.7597884
000290 8e 4e 85 3e 3b 9a c7 be b7 7d 1a 3f f2 10 6e bf
       0.26036495 -0.38984856 0.60348076 -0.92994606
0002a0 b4 e5 43 be 44 36 8a 3e dd d9 b7 be d0 f1 11 bf
       -0.19130594 0.26994526 -0.35908404 -0.570096
0002b0 e7 62 14 be 6c 66 93 3e ab b9 a4 bf fe 9e 0e 3f
       -0.14490853 0.2878908 -1.2869161 0.5571135
0002c0 ee 0c f5 be ce 74 f4 3c 43 b8 7f be 7c 94 26 3f
       -0.47861427 0.029840853 -0.24972634 0.6507032
0002d0 82 ac b8 3e a8 d4 2e 3f a7 d9 b0 bf 3b 06 e8 be
       0.36069113 0.6829324 -1.3816422 -0.45317253
0002e0 0c ee f5 3f 13 ab ec be c5 6a 34 3e bc fc f1 be
       1.9213271 -0.4622427 0.17618854 -0.47263134
0002f0 14 4f 75 3e af 31 96 3e 80 b1 83 be 91 51 ab bd
       0.23955947 0.2933478 -0.2572136 -0.08365167
000300 91 1e 0a be 70 98 e1 3d 2c 88 b2 3d b0 d8 93 3e
       -0.13488223 0.11015403 0.08717379 0.28876257
000310 ed cf c6 bd 69 79 81 bc 10 e3 47 be 7e cf 6c be
       -0.097076274 -0.015804963 -0.19520211 -0.23126027
000320 47 a9 8e be b7 03 13 3e e6 06 c3 3e 37 19 72 3e
       -0.27863523 0.14356886 0.380912 0.23642431
000330 89 22 8a 3e 22 b4 bd be 46 27 13 be 9e 0a 56 bd
       0.26979473 -0.37051493 -0.1437045 -0.05225622
000340 46 00 a5 be 60 69 8d 3e ab 68 81 bd b1 ef b7 3e
       -0.3222677 0.27619457 -0.06318792 0.35925058
000350 9e 52 62 be 71 e5 c0 3e 08 d7 5c be 78 eb 2b 3e
       -0.22101828 0.3767505 -0.21566403 0.16789043
000360 ef b2 63 bc 36 53 46 bf 52 4b 52 3e d5 f1 d8 bd
       -0.013897642 -0.7747072 0.20536545 -0.10593001
000370 27 13 eb bc 0d 6b ed 3d 3a b1 23 3e 8f e4 0c bc
       -0.028695656 0.11592684 0.15985575 -0.0085994145
000380 0f b7 24 3e cd ef 6d 3d 77 a0 bc be 89 40 a0 be
       0.16085456 0.05809002 -0.36841175 -0.31299236
000390 90 83 d2 be ea 14 52 3f e0 bd 3a 3c a2 98 7a 3f
       -0.41116 0.8206316 0.011397809 0.9788915
0003a0 5a 92 2b 3f 73 7e b6 be fc 34 d1 bd 4e 37 1f bd
       0.6702019 -0.35643348 -0.10215184 -0.038871102
0003b0 a3 97 1c bf 47 c4 b5 3d f8 53 26 3f 2e ce b7 3e
       -0.6116888 0.088753276 0.64971876 0.3589949
0003c0 4c ba 46 bf 11 6c 73 3d 28 0d 96 3e 93 3d d2 be
       -0.77628016 0.059429232 0.29306912 -0.41062602
0003d0 42 de d2 be c0 96 95 3e 00 96 02 3e 9f ee 40 3d
       -0.41185194 0.29216576 0.12752533 0.047102567
0003e0 8b 18 7c bf d8 08 92 3e 37 76 0a 3f 15 10 87 3e
       -0.9847495 0.28522372 0.5408663 0.26379457
0003f0 ad d4 10 be 16 36 28 bf 80 7a a4 3e 97 97 3b bf
       -0.1414363 -0.6570753 0.3212471 -0.7327818

deep.0.bias f4 [128]
000000 aa b0 31 be c6 34 0d be 98 69 84 be 5b 21 89 be
       -0.17352548 -0.13789663 -0.25861812 -0.2678326
000010 ee 92 ef be 8b 6b c5 be 7f 86 a1 bd b5 e6 8b be
       -0.46791786 -0.3855861 -0.07886981 -0.27324453
000020 6c 01 07 bf 8e 05 08 bf 55 b3 97 be 81 5a 15 bf
       -0.52736545 -0.53133476 -0.29629007 -0.58341223
000030 8c d3 3e bf e0 e1 14 bf 5e f3 20 bf a3 59 18 bf
       -0.74541545 -0.5815716 -0.6287135 -0.59511775
000040 e3 69 51 be fe eb 94 be 67 3c a4 be a2 63 5a be
       -0.20450549 -0.29086298 -0.32077333 -0.2132707
000050 cd d4 b1 bd 2b d8 cb 3c 4d 4f 5e bf c9 53 de bd
       -0.08683167 0.02488335 -0.86839753 -0.108558245
000060 74 a5 d1 be a9 e7 81 be 7e 94 9c be 14 db b2 be
       -0.40946543 -0.25372055 -0.3058204 -0.34932768
000070 c8 03 b4 bd f9 cd ae be 63 ec 0b be 2d ce fc be
       -0.08789784 -0.3414152 -0.13664393 -0.4937605
000080 cd 30 eb bd de b1 9a be 87 30 dd be f3 8d 43 bf
       -0.114839174 -0.30213827 -0.43201086 -0.7638847
000090 8a c5 c4 bd 0c 93 b1 be 09 c6 86 be 66 a0 d1 be
       -0.0960799 -0.346825 -0.26322964 -0.40942687
0000a0 68 ec cb bd 33 8a fd be 91 49 d9 be 64 5c 56 be
       -0.099572 -0.495195 -0.4243894 -0.20933682
0000b0 f2 f4 b8 be 16 47 43 be dd e9 19 bf a5 c3 16 bd
       -0.36124378 -0.19070086 -0.6012247 -0.036807675
0000c0 f3 e5 5e be e2 51 1e be cb 13 3e be cf 87 a2 be
       -0.21767406 -0.15460923 -0.18562238 -0.3174424
0000d0 a9 c1 eb be a4 77 75 be cc 4f bf be e0 28 1e bf
       -0.46046188 -0.2397142 -0.37365568 -0.6178112
0000e0 03 63 d4 bc 2a e1 a3 be 67 fe 67 bf da 5a 12 bf
       -0.025926119 -0.32007724 -0.9062256 -0.5716988
0000f0 32 0b a5 be a2 9d ae be 8a 30 94 be 3a 98 4a be
       -0.32235104 -0.3410464 -0.28943282 -0.19784632
000100 09 6e bc be e0 dd 6c be a1 c4 f7 be 09 dc 44 be
       -0.368027 -0.23131514 -0.48392203 -0.19224562
000110 a1 27 df bd 7c 5c a4 3d 7b 94 e7 be 7c db c1 be
       -0.108962305 0.080254525 -0.4523047 -0.37862766
000120 9f 0f 0c bf 80 ab e7 3d 31 bd 04 bf 67 a5 a5 be
       -0.54711336 0.11312008 -0.51851183 -0.32352754
000130 f1 53 1f be 01 b7 73 bf 49 11 a3 be e6 1b 92 be
       -0.15559365 -0.95201117 -0.31849125 -0.2853691
000140 33 ec 7c be ea 60 42 3e f6 7a fa bd 3e ab f5 be
       -0.24699478 0.18982282 -0.12230484 -0.4798221
000150 1f e9 be be 91 65 b3 be b0 7a cc be 59 a9 10 bf
       -0.37287232 -0.35038427 -0.39937353 -0.56508404
000160 fd 5c db be a6 c4 dd be 80 a2 9e bc 04 55 d3 be
       -0.42844382 -0.43314093 -0.019364595 -0.412758
000170 5d 92 a6 be e0 dc de be f7 2b 7c be 93 57 fd bd
       -0.3253354 -0.4352789 -0.24626146 -0.12370219
000180 21 ad bb be 00 58 60 be 0e 1d 53 bf 9e 9a 5e bf
       -0.36655524 -0.2190857 -0.8246621 -0.8695468
000190 20 07 08 bf e2 6a 4d be 55 b8 cf be fb ee 20 bf
       -0.5313587 -0.20060304 -0.40570322 -0.62864655
0001a0 65 fa 57 be 02 9c e2 bd 47 8c 32 be e7 94 c9 be
       -0.21091612 -0.110649124 -0.17436324 -0.39371416
0001b0 2a f9 8b be 60 b5 a0 bf 76 ad 09 bd b5 5c 1f bf
       -0.27338535 -1.2555351 -0.03361269 -0.62250835
0001c0 2c 81 c7 be bb a1 44 bf 99 5f e4 bc 44 a4 be be
       -0.38965738 -0.7680928 -0.027877616 -0.372347
0001d0 88 59 c1 be ce cf 6b be 36 8b 91 be 09 f9 5b be
       -0.3776362 -0.2302849 -0.28426522 -0.21481718
0001e0 78 73 cd be fd 7e 12 be a9 9c 28 be 0c e1 84 be
       -0.40127158 -0.14306255 -0.16466011 -0.25952947
0001f0 f7 b2 01 bf 92 ec bf be 73 09 93 be 09 a4 87 be
       -0.50663704 -0.37485176 -0.28718147 -0.26492336

deep.2.weight f4 [64, 128]
000000 34 cd d3 3d 8b 0a cd 3d 88 cc 27 bf 92 e1 b3 be
       0.10341874 0.100117765 -0.65546465 -0.35133034
000010 a9 64 48 be eb 3c cd 3d c6 2a 9c 3d 13 ba 9d be
       -0.19569649 0.10021385 0.07625346 -0.30806026
000020 c6 fd 5e 3f c1 c8 95 3f 25 fc 3a 3f ba aa 5d 3e
       0.8710598 1.170189 0.7304099 0.21647158
000030 f5 de a7 bf 5f d9 11 be 27 b4 fc bd 86 e1 4a 3d
       -1.3114916 -0.14243077 -0.12339049 0.049531482
000040 5f 02 12 3e 4b 44 14 bd b0 90 7b bf 36 7e 8f be
       0.14258717 -0.03619794 -0.9826765 -0.2802598
000050 78 48 4b be b4 54 0a 3e e2 c1 34 bf 20 4e d7 3d
       -0.19851863 0.13508874 -0.7060834 0.10512948
000060 e5 8b c4 bd 8d 63 37 3f 0e 03 92 3e aa a5 72 3e
       -0.09596995 0.7163628 0.28517956 0.23696008
000070 b9 6a be be c1 1a 33 bf 84 26 58 bf f8 ed 23 bc
       -0.37190798 -0.699627 -0.8443377 -0.010005467
000080 74 12 82 be a3 22 aa 3d f4 ae 93 bf 7f 5c eb bf
       -0.25404704 0.08307388 -1.1537766 -1.8387603
000090 d6 9a 51 be aa 00 f5 be a4 f7 44 be 36 e4 c3 be
       -0.20469221 -0.4785207 -0.19235092 -0.3826005
0000a0 de 52 01 3e 6a ae 1e 3f d2 2f 05 bf cf 2e eb 3e
       0.12629268 0.61984885 -0.52026093 0.4593415
0000b0 2a 04 0b bf b2 2c 08 3e 57 f7 7b bf 23 6e 06 bf
       -0.5430323 0.132983 -0.98424286 -0.52511805
0000c0 06 b6 50 bf 7d eb f0 be e1 8c 8c be 24 4e ba bf
       -0.81527746 -0.47054663 -0.27451232 -1.4555097
0000d0 47 99 22 bf c8 ed f9 3e 4e b6 d0 3d ba 36 d9 bf
       -0.6351513 0.48814225 0.10191022 -1.6969826
0000e0 1e 41 88 3e 1a e1 0b bf 7c 37 09 c0 0e 43 6f 3d
       0.2661218 -0.5464035 -2.1440115 0.058413558
0000f0 46 77 e4 3e ce 8c 4f bd 46 fe 72 bd 0f c4 ae 3e
       0.44622248 -0.05067139 -0.059324525 0.34133956
000100 db 91 3e 3e 54 ad 80 3e 03 d6 03 3e 46 79 d9 3d
       0.18610327 0.2513224 0.12874608 0.10618834
000110 7c b4 49 3e 59 3d 80 3d 3a d2 13 bf 47 48 82 3c
       0.19697756 0.06261701 -0.57742655 0.015903605
000120 fd bd 70 bf 1a 47 0c 3e 40 e0 ed 3e 44 8e 3e 3f
       -0.940399 0.13698998 0.46460152 0.7443583
000130 66 bd 05 bd d2 96 2b 3f c9 be 65 be 73 98 15 3f
       -0.032651328 0.6702701 -0.2243606 0.58435744
000140 c6 43 a9 3e 46 41 cb 3c 1b cb 3f 3e af e3 1c bf
       0.3305952 0.024811398 0.18729822 -0.6128492
000150 41 63 2c 3f 61 11 27 3e 83 5f 72 3e 8f 85 44 bf
       0.6733895 0.16315223 0.23669247 -0.76766294
000160 e6 d1 ef be 09 1d d1 bf ee 3c 27 bf 29 82 9d be
       -0.46839827 -1.6336986 -0.65327346 -0.30763367
000170 69 1c 36 be 41 b3 dd bd bb 59 d1 be d4 fe a7 3e
       -0.17784275 -0.108252056 -0.4088877 0.32811606
000180 d1 15 61 be 6b 98 30 be eb 4c f8 3e 72 01 c8 bf
       -0.21980979 -0.17245643 0.48496184 -1.5625441
000190 5d 09 83 be f1 fc bd bf 36 95 2e 3f 5f 01 53 bf
       -0.2559308 -1.4842817 0.6819643 -0.8242397
0001a0 ff e1 31 be 7d ef c5 be 2f e3 ce be 33 70 ed bf
       -0.17371367 -0.38659278 -0.40407702 -1.8549865
0001b0 2a 34 07 bf c4 b5 4f c0 8e 32 9f 3e 05 aa a7 be
       -0.5281397 -3.245469 0.31093258 -0.32746902
0001c0 cb fd 3b be 18 66 ee bf c6 bf d2 bf 30 66 2b c0
       -0.18358533 -1.8624907 -1.6464775 -2.678112
0001d0 8d d7 9c 3e 55 cc 13 3f 8e 92 c9 be bc 05 aa 3e
       0.30633202 0.5773366 -0.39369625 0.332075
0001e0 d0 dd 69 3e b5 75 e1 bf f4 95 49 bf 26 00 e6 be
       0.22838521 -1.7614046 -0.78744435 -0.44921988
0001f0 2b 21 7c bf 5c 1c a9 bf 8e 6b 71 3e 7d 82 97 bf
       -0.9848811 -1.321178 0.23576185 -1.1836697
000200 5b a4 b5 be 9e bc a8 be b6 9a da be 55 e0 61 3d
       -0.35476956 -0.32956403 -0.4269616 0.05514558
000210 02 83 d4 3e 50 db 42 be 0b 56 13 bf 51 34 8b be
       0.415062 -0.19028974 -0.57553166 -0.27188352
000220 8e 5b 11 3f 2b 70 6d bc b5 15 6f be 65 31 50 3e
       0.56780326 -0.014492075 -0.23348124 0.20331343
000230 e4 24 78 3f 29 24 97 3e ff 93 39 3e b4 de 5d 3e
       0.9693129 0.29519776 0.18122862 0.21666986
000240 29 1c d4 bd 47 e2 b9 3d b3 8c 6c 3e 20 e4 17 bf
       -0.103569336 0.09076362 0.23100547 -0.59332466
000250 49 44 fe be 4c 78 88 bf ff f7 46 3f 60 a2 df be
       -0.49661472 -1.0661712 0.7772216 -0.4367857
000260 21 f8 4c 3c fb 65 17 3f c7 9c d7 be f7 d3 c6 bb
       0.01251033 0.59139985 -0.421118 -0.0060677486
000270 90 8a c9 be 25 f5 18 3e 67 53 33 bf 32 13 9e 3e
       -0.39363527 0.14937265 -0.70049137 0.3087402
000280 cb 6a a9 bd a4 be 6b 3e eb 08 63 3e f9 47 7b 3f
       -0.08272322 0.23021942 0.2217137 0.98156697
000290 09 b3 49 be 5f 6e 86 3e e6 18 96 be 4f 31 02 be
       -0.19697203 0.2625608 -0.2931587 -0.12714122
0002a0 e7 9f 00 bf 9d a0 e3 be 0a ac 6d be c2 f7 5d bf
       -0.5024399 -0.44458476 -0.23210159 -0.86706173
0002b0 3b 15 b4 3e e2 ce c9 be 15 b5 b7 3e b3 b4 77 bf
       0.35172448 -0.39415652 0.35880342 -0.967601
0002c0 7a 1c b9 3c 20 0d 3b bf 67 58 c2 be 01 f0 6a be
       0.022596586 -0.730669 -0.3795807 -0.22943117
0002d0 9c 34 ab 3e 05 45 fc be 8d 34 60 3e e5 e2 19 3f
       0.33438575 -0.49271408 0.21895047 0.6011184
0002e0 26 bc c3 3b c7 c8 b3 bd 27 46 85 3f 4e 16 c4 3e
       0.005973357 -0.087785296 1.0412034 0.38298267
0002f0 fa 06 01 3e b1 01 64 3d 12 8a b4 be b4 6c 1c bf
       0.12600318 0.055665676 -0.3526159 -0.6110337
000300 5d 5d fa be 00 91 79 3e 62 55 d3 3d 74 fc e0 be
       -0.48899356 0.2437172 0.1031902 -0.43942606
000310 20 e2 07 be 96 b5 41 bf 28 fa 86 bd 01 c7 b8 be
       -0.13269854 -0.75667703 -0.06590682 -0.36089328
000320 32 72 f0 3e 0b 2a 4b bf ef 8d bb be 82 a4 b5 3e
       0.46962124 -0.7936103 -0.36631724 0.35477072
000330 aa a0 da 3e a7 e3 ce 3e c8 b0 62 bf ad a0 18 3f
       0.42700702 0.4040806 -0.88550997 0.5962017
000340 7b ab d3 be 61 99 0a bf 68 ed 47 bf 7c 3f 0b 3f
       -0.41341767 -0.5414029 -0.7809663 0.54393744
000350 8a 5d 1d bd 73 b6 df bd 16 38 18 be 3e d2 bc 3e
       -0.038419284 -0.10923471 -0.14865145 0.36879152
000360 b8 a9 e4 3c b8 05 03 3e 28 5c 16 bf 95 96 47 3b
       0.02791296 0.1279515 -0.5873437 0.0030454744
000370 ed 5d 88 be 1c 55 09 3e 96 43 2b bf d9 80 23 3b
       -0.2663416 0.13411373 -0.669 0.0024948625
000380 dc d7 bb bd 28 a5 d1 be 3a 8d 3d 3f ce ca 83 3f
       -0.09172031 -0.40946317 0.7404362 1.0296266
000390 c6 71 42 be 78 40 7f be fc e6 cc 3e ed 18 2b 3f
       -0.18988714 -0.24926937 0.40019977 0.6683491
0003a0 88 50 9b be 1e c5 20 bf 08 b2 63 be 04 b4 11 3f
       -0.30334878 -0.62800777 -0.22235882 0.5691531
0003b0 a1 5d 16 bf 0e 52 66 3f a4 f4 8c be f0 35 f8 3e
       -0.58736616 0.89968956 -0.27530396 0.4847865
0003c0 c8 e6 ab be fe 98 99 3a 50 de 3a be a2 19 45 bd
       -0.3357451 0.0011718569 -0.18248868 -0.04812015
0003d0 93 2a 1f 3f c1 5d eb be a1 e6 17 bf de 42 9e 3e
       0.6217434 -0.45969966 -0.59336287 0.3091039
0003e0 52 f1 3d be 04 e9 49 3e 36 31 8d be f9 d5 a2 3e
       -0.18549088 0.19717795 -0.27576607 0.31803873
0003f0 33 58 d0 3e 55 4a 15 be 26 d7 98 3d 99 a3 31 3e
       0.4069229 -0.14579137 0.07462911 0.17347564

deep.2.bias f4 [64]
000000 79 e7 b7 3e 5e 68 f1 bf a0 b4 f1 3d 47 a6 bf bf
       0.35918787 -1.8859975 0.118020296 -1.4972619
000010 2b 00 70 be ed 73 00 3f 0c f7 e2 be 3a 67 81 be
       -0.23437564 0.5017689 -0.44329107 -0.25274068
000020 18 eb d7 bf 18 3c a8 bf 91 17 b7 bf 91 2a 2d 3e
       -1.686862 -1.3143339 -1.4304067 0.16910769
000030 cd 24 a2 bf 94 ed aa 3e 1a 63 e2 3e c7 ac 2e 3e
       -1.2667481 0.33384383 0.44216233 0.17058097
000040 13 56 77 3e e6 f7 56 bf 32 3f 85 bf 9f 2d 37 3c
       0.24153928 -0.83972013 -1.0409911 0.0111803105
000050 c6 ee 69 bf e4 cb 3c be bc 58 42 3b 2a e3 be bf
       -0.91379964 -0.18437153 0.002965494 -1.4913075
000060 33 2a 17 bf 3d ad 66 bf 57 aa a7 3c 02 6c c2 bf
       -0.59048766 -0.9010809 0.020466967 -1.5189211
000070 29 0d fa 3e 3b 94 9e bf 0a f8 3f bf d8 99 7d bf
       0.48838165 -1.2388986 -0.7498785 -0.9906287
000080 af ea c3 3d 00 a6 9d bd 62 70 a1 be 93 4f fc 3d
       0.09566247 -0.076976776 -0.31531054 0.12319865
000090 28 67 c0 bf d3 e0 85 bf bc 03 0e bd 4b 94 95 be
       -1.5031481 -1.0459236 -0.03467153 -0.292147
0000a0 c0 1b 5b be 34 d2 d6 be 1d 1e 0c 3e 9e 30 a8 be
       -0.21397305 -0.41957247 0.13683362 -0.32849592
0000b0 c2 58 73 bf c1 5e f4 be a1 11 06 c0 9f ff 48 3e
       -0.9505731 -0.47728541 -2.094826 0.19628762
0000c0 51 1e e8 bf eb aa 49 3d 55 7a 91 be e2 88 9d bf
       -1.8134252 0.049235266 -0.28413644 -1.2307398
0000d0 2e 25 24 be 34 5a cc bf 84 bf 53 3f f8 f4 2d bf
       -0.16029808 -1.5965028 0.82714105 -0.6795192
0000e0 c9 eb c8 3d aa db 04 bf 4d ae 57 bf d4 e0 5c 3e
       0.098105974 -0.5189768 -0.84250337 0.2157014
0000f0 34 ca 7d bf b1 b0 f7 bf a3 c5 99 3d 11 f1 4e bd
       -0.9913666 -1.9350797 0.07508399 -0.050522868

deep.4.weight f4 [1, 64]
000000 cd 89 51 3d 30 ff 5d bc d6 47 86 3d 3e c2 07 bd
       0.051156808 -0.013549611 0.0655667 -0.03314423
000010 c3 b5 b1 3c 1f f8 82 bd 96 7e 92 bc cd f7 1d 3e
       0.021693116 -0.063949816 -0.017882627 0.1542656
000020 f4 08 68 3e 14 8f c3 3d 2d 91 c8 3d ce 50 da 3d
       0.22659665 0.09548774 0.09793315 0.106599435
000030 7a 50 3d bd 2c 0f 59 3d 28 98 8d bd 49 42 a3 3d
       -0.046219327 0.052992985 -0.06913787 0.07971627
000040 cd 4e a7 bd 54 77 42 3e 97 33 82 bd c7 1b 8a 3d
       -0.08169327 0.18990833 -0.06357496 0.06743579
000050 87 18 26 3e 2f c9 ab bc db 53 18 3e 81 20 7a 3a
       0.16220294 -0.020969955 0.14875738 0.00095415866
000060 03 a3 65 3d b9 49 98 bd 5a 35 95 3d c1 cd ed bc
       0.056063663 -0.074359365 0.07285567 -0.029028775
000070 54 74 a5 3d ae c1 06 3d 91 72 54 bd 00 12 c6 bc
       0.080788285 0.03289955 -0.05186707 -0.024178505
000080 21 0d ba bd f9 3a 56 3d 40 16 8b 3d 9b 42 57 3d
       -0.090845354 0.052302334 0.06791353 0.052553754
000090 de c6 b3 bc 97 e1 2a bd 9a 80 95 3d 25 53 04 3e
       -0.021945413 -0.041719045 0.072999194 0.12922342
0000a0 2e 16 e5 bc 79 f9 a3 3c fb c4 d2 bd 69 a6 3d bc
       -0.027964678 0.020016419 -0.10291477 -0.01157532
0000b0 c7 54 df bb cc 4b 02 3d 85 36 24 3e 0a 5c 44 3e
       -0.006815526 0.031810567 0.16036423 0.19175735
0000c0 02 d0 4f 3e 83 82 56 3d 2f 8c e3 3b e4 4d 90 bd
       0.20294192 0.05237056 0.0069442014 -0.070461065
0000d0 de d8 a8 3d 6a d5 9f bd e3 68 62 3d 09 14 85 bd
       0.08244489 -0.078043774 0.05527581 -0.06497962
0000e0 f2 47 1c 3e 68 1f af bd c4 d6 30 bd 33 58 6f 3d
       0.1526182 -0.08550912 -0.043173566 0.058433723
0000f0 f3 4c 2d be 11 ee 18 bd 37 7a 07 3e fe 53 f8 3c
       -0.16923885 -0.037336413 0.13230215 0.030313488
