src/models/final_model/models/deepfm_benchmark_opt.pth (torch, 292170 bytes, 27 tensors)

embeddings.0.weight f4 [4, 8]
-0.0025933809 9.767127e-05 -0.001010137 -0.0011644291 0.00071028783 -0.08888998 -0.00015529705 -0.00061111106
0.01232303 0.000718366 -0.021132493 -0.022704273 -0.0011572634 0.14623272 -0.0011649308 0.0009840574
-0.0051209936 0.0004879575 0.015172939 0.018185813 0.000103098224 -0.4139479 -0.000963578 4.829121e-05
-0.0022738567 0.002477623 -0.00421554 -0.0052697775 0.00077510934 0.32155737 -0.0028904881 -0.0010019059
00000000: b6f5 29bb ddd4 cc38 9366 84ba c29f 98ba
00000010: 9c32 3a3a f30b b6bd 3cd7 22b9 f832 20ba
00000020: 89e6 493c ba50 3c3a 0d1e adbc 50fe b9bc
00000030: 51af 97ba 08be 153e 97b0 98ba 7dfb 803a
00000040: 02ce a7bb 8cd4 ff39 eb97 783c 6afa 943c
00000050: 7036 d838 fbf0 d3be a098 7cba 4b8c 4a38
00000060: fc04 15bb 9e5f 223b 8322 8abb 19ae acbb
00000070: b530 4b3a 2ba3 a43e 586e 3dbb 6252 83ba

embeddings.1.weight f4 [2, 8]
0.30128503 -3.3271313e-13 -5.22365e-08 -0.37770912 0.6520023 -0.47295713 -5.591131e-18 0.83773845
-0.19504324 2.1071911e-13 -2.2223606e-08 0.24809197 -0.50511247 0.3280151 2.2035264e-17 -0.43322465
00000000: 0842 9a3e 044d bbaa a45a 60b3 1763 c1be
00000010: 9fe9 263f 7027 f2be bd46 cea2 0776 563f
00000020: 6ab9 47be a63f 6d2a 3ae6 beb2 d20b 7e3e
00000030: 0d4f 01bf 98f1 a73e 4c3d cb23 9fcf ddbe

embeddings.2.weight f4 [3, 8]
-4.2916226e-06 -4.2015214e-05 0.03288846 -1.4739199e-05 -1.0905832e-05 0.00026069593 0.084656574 -9.013996e-06
5.4190523e-06 0.00016079069 0.0995839 5.1213083e-05 2.5056092e-05 -0.0010201135 0.24066058 2.0883794e-05
2.3561195e-05 -0.0007841607 -0.16315904 -1.4581104e-05 4.5039305e-05 0.00024745945 -0.37498826 4.67715e-05
00000000: c200 90b6 7e39 30b8 0db6 063d 6148 77b7
00000010: 31f8 36b7 04ae 8839 6d60 ad3d d13a 17b7
00000020: 4ed5 b536 ec99 2839 a5f2 cb3d a1cd 5638
00000030: 8c2f d237 54b5 85ba ba6f 763e 9b2f af37
00000040: 48a5 c537 2290 4dba 2a13 27be 5da1 74b7
00000050: 96e8 3c38 72bd 8139 76fe bfbe 842c 4438

embeddings.3.weight f4 [3, 8]
-7.566975e-05 -1.27649055e-05 0.20241323 1.8644957e-07 1.7678009e-05 2.3156003e-06 0.00021494631 1.8340508e-05
-0.00032366006 -3.187239e-05 -0.079964876 2.1212345e-06 -0.00034338914 1.4397796e-05 0.0033529715 -0.0003434461
-0.0003123566 9.715204e-05 -0.22472614 6.2218064e-08 -8.4742554e-05 -1.3840794e-05 0.0011684005 -8.3832245e-05
00000000: e3b0 9eb8 da28 56b7 6a45 4f3e de32 4834
00000010: 3c4b 9437 b665 1b36 3663 6139 f1d9 9937
00000020: ebb0 a9b9 b8ae 05b8 a0c4 a3bd 885a 0e36
00000030: e908 b4b9 108e 7137 87bd 5b3b 8e10 b4b9
00000040: cbc3 a3b9 1bbe cb38 9c1e 66be be9c 8533
00000050: d0b7 b1b8 c235 68b7 0425 993a 18cf afb8

embeddings.4.weight f4 [620, 8]
0.0018510014 -0.00068694574 -0.00025797603 -0.00050420105 0.00013572245 0.00051880983 -0.00060829625 -0.0057830354
0.00032427057 0.0005890321 0.00045467255 0.0005266876 -0.0004243219 -0.00050036464 0.00057441037 0.0012007864
-0.025949547 0.0015376534 0.0015290614 0.001024042 -0.0018635553 -0.001720089 0.00088017137 -0.008568481
-0.0392789 -0.00062086096 -0.0005715741 -0.0005999249 0.00056028407 0.00045846394 -0.0005929421 0.00036219877
-0.034795564 -0.0015144551 -0.0012970902 -0.001417353 0.0012479378 0.0010881217 -0.0014091954 1.2885495e-05
0.03614844 -0.00076582655 -0.0006985568 -0.00072883046 0.00068890594 0.00069169805 -0.0007597285 0.0014135218
0.12560247 -0.0012898087 -0.0007897051 -0.0010554027 0.0006762279 0.001167927 -0.0012351858 -0.0011673917
-0.01235802 0.0003269357 0.00022062291 0.00029534605 -0.00018271612 0.00011548842 0.00020820771 0.0024282585
0.04657336 0.00054090854 0.00055667164 0.0005321185 -0.00058608584 -9.1545546e-05 0.00045713884 -0.0011347213
0.007015773 5.9499494e-06 -0.00018370054 -6.388244e-05 0.00023981184 4.906286e-05 1.6315556e-05 0.000949458
0.00069154025 7.42612e-22 -1.04044556e-22 9.06339e-22 6.1419897e-22 6.185986e-22 8.163776e-22 1.29531994e-23
-0.020191299 4.6910834e-05 -0.0002788233 -6.955126e-05 0.00037501793 -0.00010937024 9.3423965e-05 0.0056378157
-4.94946e-40 -5.82691e-40 -5.02429e-40 6.21501e-40 4.96851e-40 5.25596e-40 -5.26071e-40 -5.24502e-40
1.6565748e-05 5.086582e-36 1.615247e-35 2.3919355e-36 -9.924619e-36 -1.4688812e-36 1.2128918e-36 5.231913e-37
-0.046455078 0.0010510527 0.00025778427 0.0007349499 -5.3262655e-05 -0.001278456 0.0011570947 0.007775182
-0.015408595 0.00070916937 0.0005886258 0.00069362746 -0.0005294091 -0.00026900516 0.00067263865 0.0052765314
0.03248243 -0.0002925662 -0.00013627228 -0.00021260233 0.000108116175 0.00021571238 -0.00027067523 -0.007303921
0.0200064 6.845622e-05 0.00018204347 0.00010839343 -0.00021574249 -9.619008e-05 6.857091e-05 -0.0035235076
0.011006036 -6.299866e-07 6.049848e-07 1.1205856e-07 -6.6900486e-07 1.72621e-06 -1.4392139e-06 1.5254793e-06
0.055197626 -0.0092081465 -0.009137135 -0.009144228 0.0091217235 0.005972635 -0.008528864 -0.00051994587
0.013532725 1.256576e-06 2.4647527e-06 2.4407414e-06 -2.3369244e-06 2.63946e-06 -1.6121423e-06 4.822609e-06
0.05517155 0.0005137151 0.00031888118 0.00042381394 -0.00027599744 -0.00037052322 0.00048618938 0.0010443918
0.08591767 0.0008928986 0.0007435907 0.00082054053 -0.00070901774 -0.00049600523 0.0007761351 0.0048080096
0.0060451957 -2.184317e-19 -1.2753915e-18 2.613995e-19 2.3453796e-19 -2.7806852e-19 1.153427e-18 2.9506316e-19
-0.011001646 -0.0011081817 -0.0008964567 -0.00096876913 0.0008725195 0.0009098464 -0.0009574609 -0.0014888406
0.0052033304 2.2149783e-05 8.97467e-06 1.6298041e-05 -6.846822e-06 8.395798e-07 2.0914287e-05 5.582407e-05
0.035268612 -0.00046471358 -0.00044560365 -0.00046592962 0.00043650458 0.0003187971 -0.00046205285 0.000621204
0.017730568 -5.1645416e-10 4.763308e-09 1.6510712e-09 -5.8974083e-09 7.1745037e-09 -5.48669e-09 4.060172e-09
0.019142926 0.00015540293 4.216127e-05 0.00010901519 -1.0565082e-05 -9.2192866e-05 0.00014800021 0.002716825
0.046080973 0.00027671122 0.00010170108 0.00020028531 -5.6656983e-05 -0.00018803828 0.0002530722 0.0030019062
-0.0053812615 -3.4691818e-06 -3.4850286e-06 -3.458643e-06 3.3938793e-06 6.1013625e-09 -1.1809522e-06 -1.6855948e-13
-0.016402198 -0.00075261603 -0.0007712415 -0.0007481253 0.0007776904 0.00010473613 -0.0005253449 -0.0029084634
00000000: 4d9d f23a 2614 34ba f540 87b9 5c2c 04ba
00000010: b850 0e39 bd00 083a 1276 1fba 9e7f bdbb
00000020: dc02 aa39 4669 1a3a 1e61 ee39 6811 0a3a
00000030: 8577 deb9 e72a 03ba 0794 163a b563 9d3a
00000040: 2594 d4bc 168b c93a c96a c83a 2639 863a
00000050: 8a42 f4ba 9c74 e1ba 4dbb 663a d062 0cbc
00000060: e9e2 20bd 46c1 22ba b0d5 15ba 4744 1dba
00000070: 07e0 123a fd5d f039 ac6f 1bba 7fe5 bd39
00000080: cb85 0ebd ae80 c6ba 2003 aaba 7ac6 b9ba
00000090: d891 a33a 4e9f 8e3a c0b4 b8ba c82e 5837
000000a0: 6310 143d c0c1 48ba 5a1f 37ba fc0e 3fba
000000b0: b297 343a 1253 353a 8428 47ba ec45 b93a
000000c0: ef9d 003e cc0e a9ba 3604 4fba 7055 8aba
000000d0: e344 313a 2115 993a f5e5 a1ba 2a03 99ba
000000e0: 4b79 4abc 9168 ab39 0357 6739 add8 9a39
000000f0: 7c97 3fb9 6032 f238 5552 5a39 6b23 1f3b
00000100: b5c3 3e3d c2cb 0d3a 9aed 113a de7d 0b3a
00000110: 8ea3 19ba 24fc bfb8 23ac ef39 eeba 94ba
00000120: 92e4 e53b ada5 c736 bd9f 40b9 a0f8 85b8
00000130: 0076 7b39 d8c8 4d38 64dd 8837 0ce5 783a
00000140: 7b48 353a d270 601c 7690 fb9a 4bf6 881c
00000150: 58a1 391c c0f5 3a1c 28bc 761c 238d 7a19
00000160: 3968 a5bc 20c2 4438 082f 92b9 0cdc 91b8
00000170: 0e9e c439 b35d e5b8 9cec c338 6dbd b83b
00000180: b563 0580 4e58 0680 9178 0580 7ec4 0600
00000190: 0569 0500 26b9 0500 79ba 0580 19b6 0580
000001a0: acf6 8a37 f95b d804 35c3 ab05 be7b 4b04
000001b0: c412 5385 cdea f983 e35c ce03 6408 3203
000001c0: ae47 3ebd 7ac3 893a 3827 8739 a7a9 403a
000001d0: 5766 5fb8 dd91 a7ba a8a9 973a f4c6 fe3b
000001e0: 5574 7cbc 8de7 393a 024e 1a3a 8dd4 353a
000001f0: 0bc8 0aba 4309 8db9 0454 303a c1e6 ac3b
00000200: 4c0c 053d 9263 99b9 50e4 0eb9 01ee 5eb9
00000210: 6ebc e238 da30 6239 6ae9 8db9 bb55 efbb
00000220: 76e4 a33c 2790 8f38 ece2 3e39 4851 e338
00000230: ef38 62b9 a8b9 c9b8 bacd 8f38 a6ea 66bb
00000240: a952 343c 591c 29b5 3d66 2235 d8a4 f033
00000250: aa95 33b5 20b0 e735 032b c1b5 12bf cc35
00000260: e816 623d c4dd 16bc ecb3 15bc acd1 15bc
00000270: 4873 153c 18b6 c33b a6bc 0bbc fa4c 08ba
00000280: 5db8 5d3c 9fa7 a835 2168 2536 9ecb 2336
00000290: 0ed4 1cb6 9421 3136 ca60 d8b5 e5d1 a136
000002a0: 90fb 613d d6aa 063a 822f a739 5833 de39
000002b0: c0b3 90b9 c942 c2b9 3ce7 fe39 f9e3 883a
000002c0: 9af5 af3d 6911 6a3a 87ed 423a 8b19 573a
000002d0: 60dd 39ba 5906 02ba 8b75 4b3a 828c 9d3b
000002e0: c716 c63b 77f0 80a0 ee36 bca1 934d 9a20
000002f0: 6072 8a20 8724 a4a0 3d37 aa21 af2c ae20
00000300: 3f40 34bc 6840 91ba 3100 6bba fff4 7dba
00000310: cbb9 643a c282 6e3a 1dfe 7aba 3325 c3ba
00000320: b380 aa3b 4cce b937 ea91 1637 c7b7 8837
00000330: c1bd e5b6 7c5f 6135 1771 af37 a424 6a38
00000340: d275 103d cda4 f3b9 e99f e9b9 0448 f4b9
00000350: a7da e439 3924 a739 af3f f2b9 4bd8 223a
00000360: b23f 913c 3bf6 0db0 80aa a331 e7eb e230
00000370: 27a2 cab1 9a83 f631 7085 bcb1 a781 8b31
00000380: a0d1 9c3c a8f3 2239 52d6 3038 169f e438
00000390: af40 31b7 ab57 c1b8 8130 1b39 c30c 323b
000003a0: 67bf 3c3d 8d13 9139 5a48 d538 ae03 5239
000003b0: f9a2 6db8 242c 45b9 c7ae 8439 a1bb 443b
000003c0: 4b55 b0bb 17d0 68b6 56e0 69b6 091b 68b6
000003d0: 67c2 6336 27a4 d131 3581 9eb5 f6c7 3daa
000003e0: e75d 86bc 354b 45ba 242d 4aba d71d 44ba
000003f0: ebdd 4b3a c8a5 db38 4db7 09ba eb9b 3ebb

embeddings.5.weight f4 [24, 8]
-0.004297143 0.0023992576 -0.0007449204 0.001189866 -0.0020925999 0.0011573522 0.007892432 0.072499536
-0.001129839 -0.00017161535 0.0042037796 -0.004263477 0.003300631 0.0024413634 0.004480645 0.014939248
0.005324523 0.0064252275 -0.014962413 0.015533699 -0.01589109 -0.009756699 0.010093141 -0.01694853
-9.098793e-05 -0.004361601 0.010263406 -0.010934221 0.01141178 0.006055352 -0.0019378813 0.07043174
-0.0027710218 0.008772074 -0.010084579 0.0110900495 -0.012817456 -0.003600004 0.008011638 0.08636432
0.00033540744 0.010620739 -0.02169502 0.02243349 -0.020712895 -0.012461752 0.0033519866 0.11607361
0.00069011224 -0.011789351 0.017975524 -0.017844735 0.0155882975 0.011926175 -0.005322997 0.068115674
0.0003869893 -0.0072075897 0.0094369445 -0.010256408 0.009697888 0.0029750103 -0.010173177 0.02974145
-0.00081934314 -0.012636692 0.017096315 -0.018226266 0.01889718 0.008751609 -0.020055538 0.0071622166
-0.0008675672 0.009867314 -0.01725588 0.018417008 -0.019221142 -0.007989297 0.009297466 -0.10666905
-0.006403415 0.0029918784 0.003159516 -0.0033662273 0.0031159632 0.0016639433 -0.00013625888 -0.07655918
-0.005077249 0.0017628126 -0.0059500104 0.0061407667 -0.0057061333 -0.003871614 -0.0035388335 -0.018333584
-0.00051601476 0.003242431 0.000757215 -0.001107704 0.0007181074 -0.001055519 0.008819226 -0.073811464
-0.0062060556 -0.00928096 0.017368983 -0.01792049 0.017479334 0.0100504635 -0.008946627 -0.03463961
0.0012385667 -0.013876528 0.023004211 -0.024816062 0.024835734 0.00915136 -0.013430212 -0.031237049
-0.001520748 -0.0011559672 -0.0040192385 0.004178878 -0.0052998983 -0.003735441 -0.00041946358 -0.024593206
-0.0029521154 0.009871328 -0.008629546 0.009491013 -0.009485387 -0.002634876 0.011068621 -0.03325228
-0.002142843 0.0037727104 0.009993786 -0.010654248 0.011645545 0.00636521 0.014462241 -0.081041746
0.0005207024 0.0014005305 -0.0055564344 0.006635681 -0.0076439255 -0.00084677024 0.0017966427 -0.03960944
0.0037463682 0.0075832987 -0.020324137 0.021088634 -0.01953531 -0.011432842 0.005870809 -0.051497485
0.0018008765 0.008070766 -0.006927208 0.0067541376 -0.005527817 -0.0048821056 0.010957494 -0.038397014
0.00540884 -0.0029322167 0.008801285 -0.010090988 0.010358514 0.0013258356 -0.0044239187 0.05229409
-0.0023842168 -0.0030489243 0.006918981 -0.007467031 0.008660552 0.0035839211 -0.006689321 0.08841683
0.005270272 -0.013747346 0.0077965464 -0.008850442 0.009245918 0.00091830274 -0.022530708 0.15511385
00000000: 0ccf 8cbb dd3c 1d3b c346 43ba 47f5 9b3a
00000010: 0024 09bb 4cb2 973a 424f 013c a37a 943d
00000020: 1b17 94ba a5f3 33b9 dcbf 893b a3b4 8bbb
00000030: 664f 583b 48ff 1f3b 60d2 923b bfc3 743c
00000040: 5679 ae3b b78a d23b e924 75bc 0e81 7e3c
00000050: 082e 82bc 90da 1fbc b45d 253c a5d7 8abc
00000060: c6d0 beb8 c3eb 8ebb d827 283c 7225 33bc
00000070: 79f8 3a3c f96b c63b 8200 feba 843e 903d
00000080: 089a 35bb bfb8 0f3c ca39 25bc 0ab3 353c
00000090: 4f00 52bc 0bee 6bbb 3f43 033c c7df b03d
000000a0: a0d9 af39 9c02 2e3c c1b9 b1bc 70c6 b73c
000000b0: 17ae a9bc 602c 4cbc 01ad 5b3b 00b8 ed3d
000000c0: a6e8 343a 1f28 41bc 6841 933c 1f2f 92bc
000000d0: 0f66 7f3c 0166 433c 896c aebb 3b80 8b3d
000000e0: d3e4 ca39 a52d ecbb 6a9d 1a3c 7e0a 28bc
000000f0: e4e3 1e3c 64f8 423b 66ad 26bc 57a4 f33c
00000100: 30c9 56ba 210a 4fbc 920d 8c3c 404f 95bc
00000110: 42ce 9a3c e962 0f3c 834b a4bc 07b1 ea3b
00000120: 736d 63ba 84aa 213c 345c 8dbc 44df 963c
00000130: a875 9dbc 8ae5 02bc 6654 183c 4e75 dabd
00000140: bdd3 d1bb 6413 443b e20f 4f3b ec9b 5cbb
00000150: 3035 4c3b ac18 da3a b7e0 0eb9 0fcb 9cbd
00000160: 0d5f a6bb 2d0e e73a 4ef8 c2bb 7c38 c93b
00000170: 84fa babb e8ba 7dbb c6eb 67bb 5030 96bc
00000180: 2a45 07ba f77e 543b d77f 463a 6130 91ba
00000190: 5f3f 3c3a 5759 8aba 847e 103c 772a 97bd
000001a0: 2b5c cbbb 2b0f 18bc 6649 8e3c fecd 92bc
000001b0: d230 8f3c b3aa 243c e094 12bc 44e2 0dbd
000001c0: 6757 a23a 605a 63bc 5473 bc3c 0e4b cbbc
000001d0: 4f74 cb3c 96ef 153c 640a 5cbc d7e4 ffbc
000001e0: d653 c7ba d383 97ba d1b3 83bb f8ee 883b
000001f0: c5aa adbb 4dce 74bb 73eb dbb9 b177 c9bc
00000200: 4778 41bb 5abb 213c f062 0dbc 3280 1b3c
00000210: 9968 1bbc e2ad 2cbb 2959 353c 8b33 08bd
00000220: f16e 0cbb 943f 773b fabc 233c 288f 2ebc
00000230: f5cc 3e3c 4093 d03b 09f3 6c3c 37f9 a5bd
00000240: bf7f 083a 0192 b73a c012 b6bb 2070 d93b
00000250: e579 fabb caf9 5dba 537d eb3a 823d 22bd
00000260: a185 753b 527d f83b ce7e a6bc 12c2 ac3c
00000270: 8408 a0bc d150 3bbc ea5f c03b 07ef 52bd
00000280: 630b ec3a 3f3b 043c a2fd e2bb d051 dd3b
00000290: b122 b5bb 12fa 9fbb 1087 333c 3046 1dbd
000002a0: a33c b13b 6f2a 40bb 4433 103c ac54 25bc
000002b0: c2b6 293c a9c7 ad3a 85f6 90bb 5432 563d
000002c0: 8540 1cbb 76d0 47bb 9fb8 e23b ffad f4bb
000002d0: fde4 0d3c 38e0 6a3b 1732 dbbb e213 b53d
000002e0: 3fb2 ac3b 8c3c 61bc 2c7a ff3b 7201 11bc
000002f0: 317c 173c 41ba 703a 5292 b8bc 2ad6 1e3e

embeddings.6.weight f4 [214, 8]
-0.00013017013 0.03355161 0.000109827386 -0.00020844495 -0.00012677943 -0.00011317253 -9.6312164e-05 -9.6761316e-05
1.4852545e-19 -0.0027463478 -2.2430052e-19 -6.773757e-21 -2.6501246e-19 3.0292246e-20 4.619719e-20 6.2794466e-20
1.7036167e-06 0.0050367806 -7.991465e-07 2.5600707e-06 1.1984779e-06 4.845063e-07 -2.2279238e-07 -2.0549118e-07
-0.0007248318 0.0095059285 0.0007630932 -0.00053520617 -0.0007395389 -0.0007754956 -0.0007892178 -0.00078938284
0.0005174702 0.07775535 -0.00068489363 0.00013934767 0.00054560107 0.0006856467 0.0008070929 0.0008047611
-0.007415836 0.12575907 0.007696078 -0.0058332835 -0.007522705 -0.0077796923 -0.007875045 -0.0078762
-0.0036056421 0.03174461 0.0037969798 -0.0026270063 -0.0036786802 -0.0038591917 -0.00393255 -0.003933293
-0.0006889677 -0.017389655 0.00072509504 -0.00051696354 -0.00070088677 -0.0007346315 -0.0007500238 -0.00075009867
-0.0054025315 0.004242917 0.00528357 -0.0046911347 -0.0054204557 -0.0053171427 -0.0051584733 -0.005163008
-0.00073827594 -0.046491962 0.0007823911 -0.0005431147 -0.000752887 -0.00079454493 -0.0008157254 -0.0008157327
-0.0010685087 0.011214716 0.0012190192 -0.00039563634 -0.0011135169 -0.0012471675 -0.0013147877 -0.001314749
-0.00060287165 -0.0641869 0.0005210333 -0.00077792164 -0.0005838904 -0.0005084532 -0.0004599126 -0.00046018773
0.02093149 0.111905254 -0.021945542 0.017342666 0.021233482 0.022161696 0.022701468 0.022697136
0.006736496 -0.005701743 -0.006422439 0.007160186 0.006664964 0.006381423 0.0061714663 0.0061745215
0.004629125 -0.04471807 -0.00465731 0.0038984914 0.0046699266 0.004709108 0.004662334 0.00466528
-0.00760487 -0.071394764 0.007611233 -0.0064903526 -0.0076637343 -0.00768316 -0.007589376 -0.007593574
1.0368804e-19 0.001936865 -5.265637e-19 -7.538226e-19 -2.3475963e-20 2.9737745e-19 -2.3512694e-19 -2.2523143e-19
-0.0043786317 -0.0044710273 0.004447017 -0.0034179916 -0.0044288537 -0.004494698 -0.0044799475 -0.004481953
0.004750395 0.019236965 -0.0048834253 0.0040119267 0.004793969 0.004914309 0.004970848 0.004970956
2.756705e-07 0.003147529 -1.9083207e-07 3.2513566e-07 2.570552e-07 1.7853823e-07 1.1776684e-07 1.1833557e-07
0.0011332203 -0.10942147 -0.0012544314 0.000608715 0.0011679087 0.0012736752 0.0013327313 0.0013323856
0.001072327 0.02428373 -0.000946963 0.0011339266 0.0010514925 0.00092856865 0.00083509146 0.00083642994
-0.0016562573 0.148998 0.0017335179 -0.0012074193 -0.001689709 -0.0017642442 -0.0017868752 -0.0017874831
4.95289e-40 -0.0056661554 -5.02333e-40 4.93753e-40 4.93394e-40 5.02577e-40 -4.91504e-40 -4.9707e-40
-5.15472e-40 -4.94472e-40 5.0084e-40 -5.60811e-40 -4.91399e-40 4.95297e-40 -5.13569e-40 -5.31878e-40
-0.00042892527 -8.256821e-05 0.00047724548 -0.0002621518 -0.00043898288 -0.00048326165 -0.0005096281 -0.0005095017
1.6436941e-05 -0.009563227 -3.83221e-07 6.4088517e-06 1.8355453e-05 3.5783567e-06 -1.0584425e-05 -1.0303084e-05
0.00014987621 0.025604568 -0.00013670677 0.00016955215 0.00015499051 0.00014498252 0.00013271853 0.0001329518
-0.008737089 0.022694811 0.009182914 -0.007232742 -0.00885539 -0.009247829 -0.009502599 -0.009499497
-0.0072088838 0.061693057 0.007905155 -0.004868804 -0.0073713055 -0.0079902215 -0.008402057 -0.00839807
-4.1011524e-11 -0.002379951 -1.5864188e-11 6.282385e-11 -2.1937677e-12 5.7677276e-11 3.8982758e-11 4.0490177e-11
-0.00071050157 0.021662736 0.00074185873 -0.00051801343 -0.0007230939 -0.00075281726 -0.0007635716 -0.0007637782
00000000: 477e 08b9 6a6d 093d 2153 e638 0492 5ab9
00000010: 18f0 04b9 0a57 edb8 33fb c9b8 56ec cab8
00000020: 1059 2f20 12fc 33bb 5667 84a0 c2e7 ff9d
00000030: 8d6f 9ca0 140d 0f1f fa28 5a1f ed44 941f
00000040: d3a7 e435 940b a53b ee84 56b5 aecd 2b36
00000050: 63db a035 050f 0235 b438 6fb4 fca4 5cb4
00000060: a402 3eba c1be 1b3c 510a 483a 144d 0cba
00000070: 9edd 41ba a14a 4bba 83e3 4eba 96ee 4eba
00000080: d6a6 073a 323e 9f3d 6f8a 33ba db1d 1239
00000090: ab06 0f3a f9bc 333a 1693 533a 9af6 523a
000000a0: 8b00 f3bb fcc6 003e 622f fc3b 2125 bfbb
000000b0: 0681 f6bb caec febb 5506 01bc 2d0b 01bc
000000c0: a34c 6cbb a306 023d c0d6 783b da29 2cbb
000000d0: 0316 71bb 7eea 7cbb 9fdc 80bb dae2 80bb
000000e0: d79b 34ba c074 8ebc 4e14 3e3a d684 07ba
000000f0: b7bb 37ba 4994 40ba 3f9d 44ba 45a2 44ba
00000100: b807 b1bb 2b08 8b3b cc21 ad3b 17b8 99bb
00000110: 149e b1bb 6d3b aebb 6908 a9bb 732e a9bb
00000120: dc88 41ba 5b6e 3ebd 6119 4d3a cf5f 0eba
00000130: 645d 45ba 0249 50ba 68d6 55ba e5d6 55ba
00000140: 340d 8cba eebd 373c 7fc7 9f3a 696d cfb9
00000150: 6df3 91ba ff77 a3ba f454 acba a853 acba
00000160: 080a 1eba 6c74 83bd f495 083a 70ed 4bba
00000170: 3910 19ba b749 05ba 6d20 f1b9 5a45 f1b9
00000180: 8478 ab3c 952e e53d 23c7 b3bc 3512 8e3c
00000190: d7f1 ad3c 728c b53c 6ef8 b93c 58ef b93c
000001a0: d3bd dc3b b0d5 babb 5373 d2bb fe9f ea3b
000001b0: c565 da3b 421b d13b 033a ca3b a453 ca3b
000001c0: eaaf 973b 4c2a 37bd 599c 98bb d57d 7f3b
000001d0: 2f06 993b dc4e 9a3b 7ec6 983b 35df 983b
000001e0: 4632 f9bb 6b37 92bd a667 f93b 06ad d4bb
000001f0: 1020 fbbb 04c3 fbbb 4db0 f8bb 84d3 f8bb
00000200: 93d3 f41f 68de fd3a 076a 1ba1 3a7d 5ea1
00000210: 65b9 dd9e 698a af20 61cb 8aa0 03f4 84a0
00000220: a07a 8fbb b281 92bb 48b8 913b 6200 60bb
00000230: eb1f 91bb 4248 93bb 86cc 92bb 59dd 92bb
00000240: 34a9 9b3b d796 9d3c 2405 a0bb 7b76 833b
00000250: ba16 9d3b 3608 a13b 7fe2 a23b 67e3 a23b
00000260: ddff 9334 c646 4e3b 85e7 4cb4 4e8e ae34
00000270: 6601 8a34 37b4 3f34 01e7 fc33 ab1f fe33
00000280: 9088 943a 5d18 e0bd bc6b a4ba 2c92 1f3a
00000290: 8314 993a 73f1 a63a 0baf ae3a 71a3 ae3a
000002a0: 538d 8c3a acee c63c 9c3d 78ba 43a0 943a
000002b0: 3cd2 893a 306b 733a 0aea 5a3a dd43 5b3a
000002c0: c616 d9ba ef92 183e 3537 e33a 4542 9eba
000002d0: 3a79 ddba 363e e7ba 9535 eaba fb49 eaba
000002e0: aa64 0500 28ab b9bb 4d78 0580 6260 0500
000002f0: 625f 0500 fb78 0500 1d5a 0580 a169 0580
00000300: ed9c 0580 6362 0580 2374 0500 501b 0680
00000310: d259 0580 b064 0500 9f97 0580 a9ca 0580
00000320: 60e1 e0b9 7828 adb8 ce36 fa39 6b71 89b9
00000330: 4927 e6b9 485e fdb9 9098 05ba 1590 05ba
00000340: 10e2 8937 15af 1cbc 7ebd cdb4 9e0b d736
00000350: 09fa 9937 b323 7036 c293 31b7 69db 2cb7
00000360: 1728 1d39 acc0 d13c f258 0fb9 cfc9 3139
00000370: f384 2239 7306 1839 5c2a 0b39 fa68 0b39
00000380: 0226 0fbc 78ea b93c ef73 163c a300 edbb
00000390: 3316 11bc 3584 17bc cab0 1bbc c7a3 1bbc
000003a0: 8038 ecbb dcb1 7c3d a084 013c 7d8a 9fbb
000003b0: fe8a f1bb 6be9 02bc c8a8 09bc 0f98 09bc
000003c0: df5e 34ae f4f8 1bbb fa8a 8bad af26 8a2e
000003d0: 685f 1aac d7aa 7d2e af72 2b2e e313 322e
000003e0: f440 3aba 0d76 b13c 4c79 423a 4bcb 07ba
000003f0: 038e 3dba b658 45ba 6c2a 48ba 4a38 48ba

fm_linear.weight f4 [1, 78]
-0.010529038 0.027896214 0.008389813 -0.0025136238 0.0016695005 -0.0121217 0.015462766 -0.0074644494
-0.007986942 0.0006371764 -0.0006200618 0.000629133 -0.007953592 -0.0029488842 0.0052547674 -0.005772787
-0.0024387538 0.011200787 0.0036226544 -0.0041907476 -0.0045740614 -0.0010668639 0.002982036 5.338115e-05
0.006299643 0.00833733 -0.00063842547 -0.5019021 -0.00021499707 0.0006096282 0.33800226 -1.8040608e-13
-3.8234774e-08 -0.4274843 0.7492623 -0.53918904 -2.1920508e-17 0.9622874 3.1888558e-06 -6.20027e-05
-0.16721538 -2.234539e-05 -4.464755e-06 0.00034028242 -0.42014635 2.1332935e-06 0.00018244535 -4.8155413e-05
-0.29112756 2.3918656e-07 -3.1335512e-05 9.501003e-06 0.00040329073 -3.1726748e-05 -0.55321616 3.2065527e-05
0.0007660956 0.00031125735 -0.0009691529 -0.00028419052 -3.0005736e-05 -0.008519208 0.002099792 0.009274588
-0.01512778 0.016083254 -0.015881622 -0.0076290276 0.011578744 -0.23613343 0.006579639 -0.622754
-0.0069043958 0.004574717 0.0067234286 0.007041147 0.0071233064 0.0071266787
00000000: fc81 2cbc 9a86 e43c 6d75 093c 9cbb 24bb
00000010: 24d3 da3a 189a 46bc 8b57 7d3c 5798 f4bb
00000020: aadb 02bc 2f08 273a a58b 22ba 67ec 243a
00000030: c84f 02bc 1142 41bb 2f30 ac3b a629 bdbb
00000040: 80d3 1fbb 8183 373c 0e6a 6d3b 8a52 89bb
00000050: 02e2 95bb 03d6 8bba 436e 433b 93e5 5f38
00000060: 3c6d ce3b 4c99 083c 025c 27ba a87c 00bf
00000070: d670 61b9 75cf 1f3a a20e ad3e 831e 4baa
00000080: 9437 24b3 39df dabe a7cf 3f3f 4b08 0abf
00000090: 562e caa3 7858 763f 2000 5636 7207 82b8
000000a0: 823a 2bbe 5c72 bbb7 f4cf 95b6 ef67 b239
000000b0: 6c1d d7be b429 0f36 cd4e 3f39 7bfa 49b8
000000c0: ac0e 95be 8d69 8034 406e 03b8 7f66 1f37
000000d0: c470 d339 5612 05b8 939f 0dbf 197e 0638
000000e0: ced3 483a 4130 a339 c00e 7eba 68ff 94b9
000000f0: d4b4 fbb7 2694 0bbc aa9c 093b 71f4 173c
00000100: 82da 77bc 07c1 833c 2d1a 82bc ecfc f9bb
00000110: c6b4 3d3c f6cc 71be 039a d73b ce6c 1fbf
00000120: 453e e2bb 82e7 953b 3550 dc3b 6cb9 e63b
00000130: a06a e93b ea86 e93b

deep.0.weight f4 [256, 78]
4.99929e-40 4.93833e-40 -4.91783e-40 -4.94536e-40 5.00171e-40 -4.95796e-40 4.93746e-40 -4.94084e-40
-4.9253e-40 -4.98956e-40 -4.92718e-40 -4.97587e-40 4.91643e-40 4.98803e-40 4.98868e-40 -4.93383e-40
-4.948e-40 4.9505e-40 -4.9976e-40 -4.98417e-40 5.00352e-40 -4.91975e-40 5.07242e-40 -5.91623e-40
-5.60647e-40 5.79351e-40 -5.95426e-40 -5.03456e-40 5.4464e-40 5.36566e-40 4.95456e-40 5.19439e-40
5.24765e-40 -5.05698e-40 5.07849e-40 5.12297e-40 -5.17982e-40 5.5085e-40 -5.12371e-40 5.56523e-40
5.04837e-40 5.37591e-40 5.49687e-40 5.39259e-40 5.03278e-40 -5.41736e-40 -5.36669e-40 -4.39224e-40
5.05715e-40 5.51271e-40 -4.92552e-40 -5.5178e-40 -5.19185e-40 5.17697e-40 -5.21014e-40 5.66919e-40
4.9632e-40 -5.67003e-40 6.1344e-40 -5.32685e-40 -5.40038e-40 -4.96951e-40 -5.63999e-40 6.16243e-40
5.11087e-40 5.26974e-40 5.55665e-40 5.73393e-40 5.42061e-40 5.61182e-40 -5.59478e-40 5.12481e-40
5.33867e-40 5.41254e-40 6.22356e-40 -6.25926e-40 -5.92353e-40 5.37153e-40 -4.98278e-40 4.93372e-40
-4.95473e-40 -4.90942e-40 4.98223e-40 -4.94867e-40 5.06805e-40 -4.93865e-40 -4.18739e-40 4.29149e-40
4.92376e-40 4.9886e-40 -4.93523e-40 4.91512e-40 4.97134e-40 2.887e-40 -5.03418e-40 -4.93449e-40
-4.97098e-40 5.0625e-40 -2.72099e-40 5.02651e-40 -4.92046e-40 -5.32531e-40 -5.52452e-40 1.84879e-40
5.21055e-40 4.94569e-40 -5.39896e-40 5.35206e-40 9.4595e-41 -4.33635e-40 -1.24912e-40 5.26457e-40
-5.12184e-40 4.99843e-40 -4.94576e-40 -5.31082e-40 -5.9661e-40 5.64318e-40 5.10773e-40 -6.12216e-40
-4.92816e-40 5.29848e-40 5.1175e-40 5.80891e-40 6.03424e-40 6.20009e-40 1.48961e-40 5.0063e-40
-3.80179e-40 -6.15313e-40 5.17575e-40 -6.0873e-40 5.51066e-40 5.56143e-40 1.1765e-40 -5.15262e-40
5.88377e-40 5.85314e-40 3.92197e-40 -2.10357e-40 1.58167e-40 5.54781e-40 4.11837e-40 -5.01923e-40
2.65581e-40 -5.97039e-40 -5.89762e-40 5.26141e-40 5.49148e-40 5.56495e-40 5.29905e-40 5.63684e-40
5.56499e-40 5.47521e-40 3.4689e-41 6.05434e-40 -4.9228e-40 -4.91695e-40 6.3954e-41 4.9495e-40
-4.91676e-40 4.91838e-40 -4.91568e-40 4.92177e-40 -4.90583e-40 -4.95451e-40 -4.92834e-40 -4.94105e-40
4.94227e-40 -4.91185e-40 4.949e-40 -4.94563e-40 -4.94894e-40 -4.94431e-40 4.92038e-40 4.94689e-40
-4.94123e-40 4.9232e-40 5.06715e-40 -4.12101e-40 -5.43624e-40 -5.68875e-40 -5.6108e-41 4.91503e-40
5.85821e-40 5.27621e-40 -4.29152e-40 4.92308e-40 -4.9946e-40 -4.92094e-40 4.98379e-40 -4.98288e-40
6.23896e-40 -4.96131e-40 -5.0835e-40 5.89798e-40 4.95024e-40 -5.6763e-40 5.26399e-40 -4.93123e-40
2.14956e-40 4.56455e-40 -5.34413e-40 9.263e-42 -5.01704e-40 5.62385e-40 -5.05144e-40 -5.35526e-40
-5.41596e-40 3.66065e-40 5.20582e-40 1.26562e-40 -4.98439e-40 3.8746e-40 -4.32598e-40 -6.00007e-40
-5.7524e-40 -3.4039e-40 5.33836e-40 6.05689e-40 4.53383e-40 -5.17002e-40 -4.44059e-40 -4.05306e-40
-5.53356e-40 -5.35833e-40 5.01508e-40 5.09677e-40 4.61903e-40 4.17017e-40 5.16897e-40 4.84799e-40
-4.3818e-40 -2.31168e-40 -5.0433e-40 -5.07826e-40 1.5574e-41 4.99947e-40 4.71876e-40 -4.97778e-40
-2.05695e-40 -4.92195e-40 -4.96242e-40 -4.96162e-40 4.95606e-40 -4.95391e-40 -5.04629e-40 -4.94346e-40
7.9735e-41 -4.96578e-40 4.9975e-40 -4.92035e-40 -8.2748e-41 4.90488e-40 5.02593e-40 -4.97439e-40
00000000: 9971 0500 9b60 0500 e45a 0580 9162 0580
00000010: 4672 0500 1466 0580 5d60 0500 4e61 0580
00000020: f95c 0580 e36e 0580 7f5d 0580 126b 0580
00000030: 805a 0500 766e 0500 a46e 0500 5a5f 0580
00000040: 4d63 0580 ff63 0500 2171 0580 626d 0580
00000050: c772 0500 6d5b 0580 fc85 0500 3471 0680
00000060: db1a 0680 ff4e 0600 ce7b 0680 6e7b 0580
00000070: 3cee 0500 bad7 0500 2165 0500 fca7 0500
00000080: d5b6 0500 ae81 0580 ad87 0500 1394 0500
00000090: eca3 0580 8cff 0500 4894 0580 5c0f 0600
000000a0: 487f 0500 96da 0500 4efc 0500 3cdf 0500
000000b0: ef7a 0500 24e6 0580 04d8 0580 61c8 0480
000000c0: ba81 0500 b800 0600 095d 0580 2302 0680
000000d0: 47a7 0580 21a3 0500 60ac 0580 572c 0600
000000e0: 8a67 0500 932c 0680 05ae 0600 e9cc 0580
000000f0: 68e1 0580 4c69 0580 3324 0680 d6b5 0600
00000100: b490 0500 fdbc 0500 f80c 0600 633e 0600
00000110: 0ce7 0500 591c 0600 9917 0680 9794 0500
00000120: 34d0 0500 cce4 0500 e0c6 0600 d4d0 0680
00000130: 3d73 0680 5dd9 0500 ff6c 0580 525f 0500
00000140: 2d65 0580 8c58 0580 d86c 0500 7d63 0580
00000150: c484 0500 b260 0580 468f 0480 4bac 0400
00000160: 8b5c 0500 9e6e 0500 be5f 0580 235a 0500
00000170: cf69 0500 c724 0300 537b 0580 895f 0580
00000180: b569 0580 3883 0500 80f6 0280 3079 0500
00000190: a05b 0580 7bcc 0580 0304 0680 5e03 0200
000001a0: 7dac 0500 a862 0500 03e1 0580 f0d3 0500
000001b0: b107 0100 ccb8 0480 345c 0180 8cbb 0500
000001c0: c393 0580 5c71 0500 ad62 0580 71c8 0580
000001d0: 1b7f 0680 1725 0600 d48f 0500 9caa 0680
000001e0: c55d 0580 00c5 0500 8d92 0500 4a53 0600
000001f0: 1a92 0600 55c0 0600 3e9f 0100 8e73 0500
00000200: c923 0480 3eb3 0680 caa2 0500 e4a0 0680
00000210: 2600 0600 4d0e 0600 f647 0100 579c 0580
00000220: 2868 0600 9e5f 0600 4945 0400 644a 0280
00000230: e8b8 0100 810a 0600 097c 0400 2877 0580
00000240: 55e4 0200 4d80 0680 046c 0680 abba 0500
00000250: cdfa 0500 480f 0600 29c5 0500 5223 0600
00000260: 4b0f 0600 44f6 0500 b360 0000 b497 0600
00000270: 475c 0580 a55a 0580 47b2 0000 b863 0500
00000280: 985a 0580 0b5b 0500 4b5a 0580 fd5b 0500
00000290: 8c57 0580 1e65 0580 d25d 0580 5d61 0580
000002a0: b461 0500 3959 0580 9463 0500 a462 0580
000002b0: 9063 0580 4662 0580 9a5b 0500 fe62 0500
000002c0: 6a61 0580 635c 0500 8484 0500 c57c 0480
000002d0: 67eb 0580 cb31 0680 689c 0080 1c5a 0500
000002e0: 0861 0600 cbbe 0500 4dac 0480 5b5c 0500
000002f0: 4b70 0580 c25b 0580 476d 0500 066d 0580
00000300: 2bcb 0600 0367 0580 1389 0580 1e6c 0600
00000310: ed63 0500 522e 0680 63bb 0500 a05e 0580
00000320: 3657 0200 69f8 0400 bad1 0580 d219 0000
00000330: 8c76 0580 b31f 0600 2380 0580 d4d4 0580
00000340: c0e5 0580 71fc 0300 2cab 0500 ce60 0100
00000350: 726d 0580 1538 0400 e8b5 0480 9388 0680
00000360: 8943 0680 deb4 0380 1ed0 0500 6a98 0600
00000370: d9ef 0400 31a1 0580 dbd5 0480 d469 0480
00000380: 8806 0680 afd5 0580 0076 0500 c68c 0500
00000390: 9907 0500 798a 0400 e6a0 0500 6c47 0500
000003a0: 78c5 0480 6784 0280 de7d 0580 9d87 0580
000003b0: 6a2b 0000 a671 0500 6623 0500 9a6b 0580
000003c0: 653d 0280 0a5c 0580 5267 0580 1967 0580
000003d0: 8c65 0500 f364 0580 b37e 0580 0962 0580
000003e0: 45de 0000 4268 0580 1a71 0500 985b 0580
000003f0: abe6 0080 4857 0500 0679 0500 a86a 0580

deep.0.bias f4 [256]
-5.06704e-40 5.12341e-40 -4.9482e-40 4.91381e-40 -5.1551e-40 5.09648e-40 4.99178e-40 4.98498e-40
-4.97354e-40 -5.04791e-40 -5.00383e-40 4.92433e-40 -5.00988e-40 4.99536e-40 5.10834e-40 4.90899e-40
5.06446e-40 -5.17855e-40 4.95164e-40 4.91859e-40 4.93586e-40 4.95147e-40 5.05988e-40 -4.963e-40
4.97434e-40 -4.9217e-40 -4.95636e-40 4.95089e-40 4.96525e-40 5.03376e-40 5.13726e-40 -5.0095e-40
5.55625e-40 4.91836e-40 -5.2442e-40 5.10171e-40 4.99077e-40 -4.97877e-40 -4.96599e-40 -4.99378e-40
-4.92376e-40 -4.91057e-40 -4.94689e-40 -4.94335e-40 -4.97879e-40 4.92343e-40 -4.95722e-40 -4.95283e-40
-5.441e-40 -5.50332e-40 -5.06152e-40 -4.9655e-40 4.95397e-40 -5.11103e-40 -4.91143e-40 -4.98924e-40
-1.8358e-40 4.92052e-40 5.04791e-40 -4.95851e-40 4.94532e-40 -4.9552e-40 4.99378e-40 4.9366e-40
-4.94431e-40 4.94769e-40 -4.94681e-40 4.98191e-40 -4.96795e-40 5.0108e-40 6.05989e-40 -5.97815e-40
5.01478e-40 5.0073e-40 5.00676e-40 4.90963e-40 5.00252e-40 4.94497e-40 -4.9857e-40 -4.9374e-40
-4.92275e-40 -2.24506e-40 4.93372e-40 -5.05601e-40 4.9522e-40 4.93415e-40 -4.94754e-40 -4.99147e-40
5.0078e-40 -4.94183e-40 -4.92172e-40 -5.82558e-40 -5.01923e-40 -4.98384e-40 4.91786e-40 5.12924e-40
5.03035e-40 -4.94763e-40 4.94075e-40 5.96465e-40 5.0017e-40 4.91264e-40 4.98649e-40 -4.96563e-40
-6.16976e-40 -4.99905e-40 4.94803e-40 -4.97425e-40 4.90896e-40 -4.97964e-40 -4.95224e-40 -4.91179e-40
-5.01043e-40 -4.93005e-40 -4.58307e-40 -4.95054e-40 4.99933e-40 -4.92374e-40 5.03695e-40 -4.93673e-40
4.91427e-40 5.00804e-40 4.13675e-40 5.81109e-40 -5.01187e-40 4.937e-40 4.98841e-40 4.92569e-40
4.93694e-40 -4.96374e-40 5.02356e-40 4.93627e-40 4.9422e-40 -4.93951e-40 5.91812e-40 -4.94623e-40
4.91592e-40 -4.96927e-40 4.9887e-40 -4.94078e-40 -4.94088e-40 -4.95686e-40 -4.96246e-40 -4.9422e-40
4.96319e-40 -5.00161e-40 -5.08269e-40 -4.99749e-40 4.9088e-40 4.95537e-40 -5.01194e-40 4.93106e-40
-5.12128e-40 4.90959e-40 4.92139e-40 4.94723e-40 -4.96351e-40 -4.95145e-40 -5.00461e-40 4.90574e-40
4.91315e-40 4.93767e-40 -4.93024e-40 -4.96692e-40 -4.96083e-40 -4.95439e-40 4.9516e-40 -4.95582e-40
-4.95174e-40 -5.0382e-40 4.93637e-40 -4.95369e-40 4.90878e-40 -4.94071e-40 5.99844e-40 -5.66953e-40
4.92638e-40 -4.91121e-40 5.49607e-40 5.04257e-40 4.99818e-40 -4.91249e-40 -4.92306e-40 -5.05757e-40
-4.99315e-40 -4.94859e-40 4.97073e-40 -4.97489e-40 4.9477e-40 -4.99235e-40 -4.94487e-40 -5.75883e-40
4.91371e-40 -4.99238e-40 4.94721e-40 5.03896e-40 -5.07713e-40 -4.92306e-40 4.99413e-40 -5.51583e-40
-5.03093e-40 -5.63288e-40 -4.91592e-40 4.9429e-40 -5.07105e-40 -4.91454e-40 3.51688e-40 -4.9319e-40
-4.94131e-40 4.90546e-40 -4.9158e-40 6.24308e-40 5.0822e-40 4.95205e-40 -4.91363e-40 5.78596e-40
4.94688e-40 4.91609e-40 5.00762e-40 4.97008e-40 -4.91152e-40 -4.96899e-40 5.028e-40 4.96317e-40
5.038e-40 4.93436e-40 2.62777e-40 -4.97067e-40 4.95903e-40 5.00376e-40 -5.10267e-40 -4.94856e-40
-5.33194e-40 4.95275e-40 1.36243e-40 4.9264e-40 -4.95115e-40 -5.07231e-40 -6.17188e-40 4.90718e-40
4.96539e-40 4.9368e-40 4.95572e-40 5.03051e-40 -4.92771e-40 -5.02646e-40 4.94828e-40 4.95184e-40
4.9301e-40 -4.99508e-40 -5.01777e-40 -4.94249e-40 -5.10944e-40 -4.9259e-40 -4.9204e-40 -5.01194e-40
00000000: 7c84 0580 3394 0500 5b63 0580 c559 0500
00000010: 089d 0580 b18c 0500 816f 0500 9c6d 0500
00000020: 6c6a 0580 277f 0580 dd72 0580 b45c 0500
00000030: 8d74 0580 8170 0500 ff8f 0500 6d58 0500
00000040: c483 0500 92a3 0580 5164 0500 1a5b 0500
00000050: eb5f 0500 4564 0500 7d82 0500 7c67 0580
00000060: a56a 0500 f85b 0580 a265 0580 1b64 0500
00000070: 1c68 0500 357b 0500 0f98 0500 7274 0580
00000080: db0c 0600 0a5b 0500 dfb5 0580 268e 0500
00000090: 396f 0500 e16b 0580 5168 0580 1070 0580
000000a0: 8b5c 0580 de58 0580 fe62 0580 0162 0580
000000b0: e26b 0580 745c 0500 df65 0580 a664 0580
000000c0: bbec 0580 1afe 0580 f282 0580 2e68 0580
000000d0: f764 0500 bf90 0580 1b59 0580 cc6e 0580
000000e0: bfff 0180 a45b 0500 277f 0500 3b66 0580
000000f0: 8e62 0500 4f65 0580 1070 0500 2060 0500
00000100: 4662 0580 3763 0500 f862 0580 c16c 0500
00000110: dd68 0580 cf74 0500 4099 0600 7782 0680
00000120: eb75 0500 d573 0500 ae73 0500 9b58 0500
00000130: 8072 0500 7562 0500 cf6d 0580 5960 0580
00000140: 435c 0580 d571 0280 525f 0500 6981 0580
00000150: 7964 0500 715f 0500 2c63 0580 6b6f 0580
00000160: f973 0500 9561 0580 fa5b 0580 ef57 0680
00000170: 2877 0580 4b6d 0580 e65a 0500 d395 0500
00000180: 427a 0500 3363 0580 4861 0500 b47e 0600
00000190: 4572 0500 7259 0500 086e 0500 3768 0580
000001a0: e1b7 0680 8871 0580 4f63 0500 9e6a 0580
000001b0: 6b58 0500 1f6c 0580 7c64 0580 3559 0580
000001c0: b474 0580 4c5e 0580 93fd 0480 0264 0580
000001d0: 9c71 0500 8a5c 0580 197c 0500 2960 0580
000001e0: e659 0500 0a74 0500 2881 0400 e553 0600
000001f0: 1b75 0580 3c60 0500 916e 0500 155d 0500
00000200: 3860 0500 b067 0580 5d78 0500 0860 0500
00000210: af61 0500 ef60 0580 bb71 0600 cf62 0580
00000220: 5c5a 0500 3b69 0580 a66e 0500 4a61 0580
00000230: 5161 0580 c565 0580 5567 0580 af61 0580
00000240: 8967 0500 3f72 0580 d988 0580 1971 0580
00000250: 6058 0500 5b65 0500 2075 0580 945e 0500
00000260: 9b93 0580 9858 0500 e25b 0500 1663 0500
00000270: a067 0580 4364 0580 1573 0580 8557 0500
00000280: 9659 0500 6c60 0500 5a5e 0580 9368 0580
00000290: e166 0580 1565 0580 4e64 0500 7b65 0580
000002a0: 5864 0580 727c 0580 0f60 0500 e364 0580
000002b0: 5e58 0500 4561 0580 1f88 0600 6f2c 0680
000002c0: 465d 0500 0c59 0580 15fc 0500 aa7d 0500
000002d0: 4a71 0500 6759 0580 595c 0580 d881 0580
000002e0: e36f 0580 7763 0580 a369 0500 cc6a 0580
000002f0: 3863 0500 aa6f 0580 6e62 0580 5445 0680
00000300: be59 0500 ac6f 0580 1563 0500 a87c 0500
00000310: 4c87 0580 595c 0580 2970 0500 9701 0680
00000320: 6b7a 0580 3822 0680 5c5a 0580 e161 0500
00000330: 9a85 0580 f959 0580 5dd4 0300 d05e 0580
00000340: 7061 0580 7157 0500 535a 0580 51cc 0600
00000350: b688 0500 6e64 0500 b859 0580 e44c 0600
00000360: fd62 0500 685a 0500 ec73 0500 7569 0500
00000370: 2259 0580 2769 0580 9a79 0500 8867 0500
00000380: 647c 0500 805f 0500 84dc 0200 9f69 0580
00000390: 6066 0500 d872 0500 6b8e 0580 7563 0580
000003a0: 54ce 0580 a064 0500 ca7b 0100 485d 0500
000003b0: 2e64 0580 f485 0580 78b8 0680 ec57 0500
000003c0: 2668 0500 2e60 0500 7465 0500 4d7a 0500
000003d0: a55d 0580 2c79 0580 6163 0500 5f64 0500
000003e0: 505e 0500 6d70 0580 c076 0580 c461 0580
000003f0: 4e90 0580 245d 0580 9b5b 0580 2075 0580

deep.2.weight f4 [256]
4.93623e-40 -4.90609e-40 -4.92216e-40 4.91627e-40 -4.90824e-40 5.01249e-40 4.90764e-40 4.92889e-40
-4.93329e-40 -4.93703e-40 -4.90732e-40 -4.90543e-40 -4.92266e-40 -5.9393e-40 4.90921e-40 -4.93854e-40
-4.93879e-40 4.92133e-40 4.93462e-40 -4.91316e-40 -4.90593e-40 4.94723e-40 -4.93755e-40 -4.94514e-40
4.93249e-40 4.94834e-40 -4.90572e-40 4.94329e-40 -4.9433e-40 -4.93916e-40 -4.94552e-40 -4.9345e-40
-4.94511e-40 4.94499e-40 6.04953e-40 4.90752e-40 -4.92655e-40 4.90983e-40 -4.9116e-40 -4.95114e-40
-4.91643e-40 -4.91252e-40 4.9342e-40 4.92264e-40 4.94763e-40 4.92722e-40 -4.90474e-40 4.91983e-40
4.91071e-40 -4.91259e-40 -4.94954e-40 -5.9523e-40 4.95014e-40 4.91682e-40 -4.94367e-40 -4.91738e-40
4.93571e-40 -4.92568e-40 -4.92383e-40 -4.92489e-40 -4.9109e-40 -4.92583e-40 4.94305e-40 4.9344e-40
-4.93299e-40 -4.94273e-40 4.90991e-40 -4.93558e-40 4.91651e-40 4.99829e-40 4.9463e-40 -4.91238e-40
-4.91242e-40 -4.90641e-40 4.91007e-40 4.93197e-40 -4.92352e-40 -4.92088e-40 4.9372e-40 -4.9096e-40
-4.92757e-40 4.90568e-40 -4.94646e-40 -4.90927e-40 4.91767e-40 4.90775e-40 4.93506e-40 4.96962e-40
4.92135e-40 4.93184e-40 4.95009e-40 -4.91489e-40 -4.94246e-40 -4.91444e-40 4.94396e-40 4.92423e-40
-4.9377e-40 4.94546e-40 -4.92342e-40 -4.91302e-40 4.92722e-40 4.93008e-40 -4.94193e-40 -4.91874e-40
4.92783e-40 -4.92869e-40 -4.94517e-40 -4.94646e-40 4.93812e-40 4.93069e-40 -4.93631e-40 -4.90459e-40
4.9264e-40 -4.91545e-40 -4.92593e-40 -4.92378e-40 4.92114e-40 -4.94078e-40 -4.94001e-40 4.94828e-40
-4.91081e-40 4.90561e-40 4.94395e-40 4.90906e-40 -4.94262e-40 4.91703e-40 4.93066e-40 4.91613e-40
4.9293e-40 4.91192e-40 -5.09165e-40 4.92775e-40 4.91734e-40 4.9177e-40 -4.91954e-40 4.90681e-40
4.9075e-40 -4.94054e-40 4.9237e-40 5.77495e-40 -4.90679e-40 -4.93917e-40 -4.9468e-40 4.95065e-40
-4.91381e-40 -4.9436e-40 -4.93571e-40 -4.92192e-40 -4.93142e-40 -4.93474e-40 -4.90513e-40 -4.93233e-40
4.91564e-40 4.92107e-40 -4.91217e-40 4.93952e-40 4.9307e-40 4.9349e-40 -4.90477e-40 -4.91419e-40
4.94059e-40 -4.9162e-40 -4.9266e-40 4.9072e-40 4.94887e-40 4.91004e-40 4.91207e-40 -4.91037e-40
-4.91271e-40 -4.9298e-40 -4.94814e-40 -4.9257e-40 4.92562e-40 -5.06471e-40 4.92412e-40 4.91808e-40
4.94203e-40 -4.91341e-40 4.93819e-40 -4.94754e-40 4.91065e-40 4.9141e-40 4.92339e-40 -4.9229e-40
-4.9441e-40 -4.9486e-40 -4.92935e-40 4.92055e-40 4.95044e-40 -4.91627e-40 -4.94671e-40 4.9051e-40
4.94798e-40 -4.92754e-40 4.93044e-40 5.00383e-40 4.93989e-40 -4.91056e-40 4.94371e-40 -4.91688e-40
-4.95072e-40 4.93299e-40 -4.9274e-40 -4.93347e-40 -4.92289e-40 4.92978e-40 4.94354e-40 -4.94786e-40
-4.94611e-40 4.91431e-40 -4.9049e-40 4.91707e-40 -4.94807e-40 -4.9221e-40 -4.92079e-40 -4.93065e-40
4.91417e-40 -4.90949e-40 4.91278e-40 -4.91627e-40 4.91615e-40 -4.9392e-40 -4.91549e-40 4.92385e-40
-4.92427e-40 -4.92419e-40 -4.91874e-40 -4.93476e-40 -4.9143e-40 4.94209e-40 4.9122e-40 -4.95037e-40
-4.93462e-40 -4.91581e-40 4.9477e-40 4.91032e-40 -4.92796e-40 4.9367e-40 -4.9064e-40 4.9301e-40
-4.93417e-40 4.91849e-40 4.94932e-40 -4.93834e-40 -4.9364e-40 -4.92066e-40 4.9358e-40 -4.90798e-40
-4.90917e-40 -4.90857e-40 -6.27468e-40 4.93403e-40 -4.93e-40 -5.28913e-40 -4.9203e-40 4.92708e-40
00000000: 0560 0500 9e57 0580 195c 0580 755a 0500
00000010: 3858 0580 4775 0500 0d58 0500 f95d 0500
00000020: 335f 0580 3e60 0580 f657 0580 6f57 0580
00000030: 3d5c 0580 a377 0680 7d58 0500 aa60 0580
00000040: bc60 0580 de5b 0500 925f 0500 9759 0580
00000050: 9357 0580 1663 0500 6360 0580 8162 0580
00000060: fa5e 0500 6563 0500 8457 0580 fd61 0500
00000070: fe61 0580 d660 0580 9c62 0580 8a5f 0580
00000080: 7f62 0580 7662 0500 5d96 0600 0458 0500
00000090: 525d 0580 a958 0500 2759 0580 2d64 0580
000000a0: 805a 0580 6959 0580 745f 0500 3b5c 0500
000000b0: 3363 0500 825d 0500 3e57 0580 735b 0500
000000c0: e858 0500 6e59 0580 bb63 0580 427b 0680
000000d0: e663 0500 9c5a 0500 1862 0580 c45a 0580
000000e0: e05f 0500 145d 0580 905c 0580 dc5c 0580
000000f0: f658 0580 1f5d 0580 ec61 0500 835f 0500
00000100: 1e5f 0580 d561 0580 af58 0500 d75f 0580
00000110: 865a 0500 5271 0500 d462 0500 5f59 0580
00000120: 6259 0580 b557 0580 ba58 0500 d55e 0500
00000130: 7a5c 0580 be5b 0580 4a60 0500 9958 0580
00000140: 9b5d 0580 8157 0500 df62 0580 8158 0580
00000150: d95a 0500 1558 0500 b25f 0500 5469 0500
00000160: df5b 0500 cc5e 0500 e263 0500 125a 0580
00000170: c261 0580 f259 0580 2d62 0500 ad5c 0500
00000180: 6e60 0580 9862 0500 735c 0580 8d59 0580
00000190: 825d 0500 4e5e 0500 9c61 0580 255b 0580
000001a0: ae5d 0500 eb5d 0580 8362 0580 df62 0580
000001b0: 8c60 0500 7a5e 0500 0b60 0580 3357 0580
000001c0: 485d 0500 3a5a 0580 265d 0580 8d5c 0580
000001d0: d05b 0500 4a61 0580 1361 0580 6163 0500
000001e0: ef58 0580 7c57 0500 2c62 0500 7258 0500
000001f0: cd61 0580 ab5a 0500 785e 0500 6b5a 0500
00000200: 175e 0500 3e59 0500 588b 0580 a85d 0500
00000210: c15a 0500 db5a 0500 5e5b 0580 d257 0500
00000220: 0358 0500 3961 0580 875c 0500 d249 0600
00000230: d057 0580 d760 0580 f762 0580 0a64 0500
00000240: c559 0580 1362 0580 e05f 0580 085c 0580
00000250: ae5e 0580 9b5f 0580 5a57 0580 ef5e 0580
00000260: 485a 0500 cb5b 0500 5059 0580 f060 0500
00000270: 7b5e 0500 a65f 0500 4057 0580 e059 0580
00000280: 3c61 0500 705a 0580 565d 0580 ed57 0500
00000290: 8b63 0500 b858 0500 4959 0500 d058 0580
000002a0: 7759 0580 3a5e 0580 5763 0580 165d 0580
000002b0: 105d 0500 d683 0580 a55c 0500 f65a 0500
000002c0: a361 0500 a959 0580 9160 0500 2c63 0580
000002d0: e458 0500 da59 0500 715c 0500 4e5c 0580
000002e0: 3762 0580 7863 0580 1a5e 0580 a65b 0500
000002f0: fb63 0500 755a 0580 f162 0580 5857 0500
00000300: 4c63 0500 995d 0580 685e 0500 dd72 0500
00000310: 0a61 0500 dd58 0580 1b62 0500 a05a 0580
00000320: 0f64 0580 1e5f 0500 8f5d 0580 405f 0580
00000330: 4d5c 0580 395e 0500 0f62 0500 4363 0580
00000340: c662 0580 e959 0500 4957 0580 ae5a 0500
00000350: 5263 0580 155c 0580 b75b 0580 775e 0580
00000360: df59 0500 9158 0580 7c59 0500 755a 0580
00000370: 6c5a 0500 d960 0580 3d5a 0580 925c 0500
00000380: b05c 0580 aa5c 0580 255b 0580 9c5f 0580
00000390: e859 0580 a761 0500 5259 0500 f663 0580
000003a0: 925f 0580 545a 0580 3863 0500 cc58 0500
000003b0: b75d 0580 2760 0500 b457 0580 505e 0500
000003c0: 725f 0580 135b 0500 ab63 0500 9c60 0580
000003d0: 1160 0580 ae5b 0580 e65f 0500 2558 0580
000003e0: 7a58 0580 4f58 0580 20d5 0680 685f 0500
000003f0: 495e 0580 65c2 0580 945b 0580 785d 0500

deep.2.bias f4 [256]
4.95126e-40 4.9277e-40 -4.94709e-40 4.9291e-40 -4.93237e-40 -5.00837e-40 4.9292e-40 4.92227e-40
4.94514e-40 -4.90565e-40 4.94622e-40 4.95484e-40 -4.94742e-40 4.94192e-40 4.2914e-40 -4.94234e-40
-4.98258e-40 4.94267e-40 -4.93675e-40 4.9572e-40 -4.94925e-40 -4.9309e-40 4.92066e-40 -4.90546e-40
-4.9365e-40 -4.94521e-40 4.92004e-40 -4.92542e-40 4.90663e-40 -4.9436e-40 4.98341e-40 4.92535e-40
-4.91863e-40 -4.94578e-40 -4.92792e-40 4.92167e-40 4.94291e-40 4.92192e-40 -3.42061e-40 4.90683e-40
-4.94741e-40 -4.92917e-40 5.21346e-40 -4.93357e-40 -4.91732e-40 4.92349e-40 -4.91454e-40 -4.9341e-40
-4.93878e-40 4.92775e-40 -4.91005e-40 -4.9501e-40 -4.93078e-40 4.95777e-40 4.93172e-40 4.92891e-40
-4.90564e-40 -4.91704e-40 4.91019e-40 -4.91986e-40 -4.92048e-40 -4.9381e-40 -4.94461e-40 -4.95324e-40
-4.90522e-40 4.90742e-40 4.9411e-40 -4.93843e-40 -4.9358e-40 4.91609e-40 -4.9257e-40 4.92297e-40
-4.93017e-40 4.94137e-40 -4.90931e-40 -4.92655e-40 4.91647e-40 4.91987e-40 -4.93121e-40 4.94511e-40
-4.9163e-40 -4.91592e-40 -4.94422e-40 -4.94506e-40 -4.90631e-40 4.9577e-40 -4.91082e-40 -4.97422e-40
-4.91536e-40 4.92639e-40 4.92992e-40 4.92751e-40 4.9276e-40 4.92563e-40 -4.91507e-40 -4.90516e-40
-4.93818e-40 -4.93223e-40 4.90658e-40 -4.93928e-40 4.94773e-40 -4.90966e-40 4.91141e-40 4.93975e-40
-4.9496e-40 4.94677e-40 4.91962e-40 4.9092e-40 -4.91082e-40 4.93113e-40 4.91374e-40 4.92848e-40
-4.94087e-40 4.92873e-40 -5.23336e-40 -4.91718e-40 -4.96676e-40 4.9508e-40 -4.91406e-40 4.91339e-40
4.92484e-40 4.93516e-40 4.91563e-40 -4.94818e-40 -4.9395e-40 -4.91554e-40 -4.91604e-40 4.93341e-40
4.94096e-40 -4.96996e-40 4.95737e-40 4.95014e-40 4.93641e-40 -4.9394e-40 4.93955e-40 4.91103e-40
-4.93264e-40 -6.20927e-40 -4.93055e-40 -4.92212e-40 -4.91423e-40 -5.84057e-40 4.94612e-40 -4.93684e-40
4.92021e-40 4.93277e-40 4.91815e-40 -4.93893e-40 -4.95031e-40 -4.90546e-40 4.94232e-40 4.96629e-40
4.9123e-40 4.92289e-40 4.90677e-40 -4.91598e-40 4.94399e-40 4.92589e-40 -4.91161e-40 -4.93492e-40
4.98125e-40 -4.92687e-40 -4.94922e-40 4.94368e-40 -4.93913e-40 -4.92632e-40 -4.94391e-40 4.95066e-40
4.92111e-40 4.95321e-40 4.94448e-40 -4.90812e-40 4.9145e-40 -4.9215e-40 4.94612e-40 4.90497e-40
4.9334e-40 -4.91112e-40 4.92151e-40 4.93099e-40 -5.724e-40 -4.9119e-40 4.92555e-40 -4.95666e-40
4.9319e-40 4.90958e-40 -4.93481e-40 -4.91143e-40 -4.94612e-40 -4.93916e-40 6.13009e-40 -4.92859e-40
-4.91035e-40 -4.90876e-40 4.93308e-40 -4.93298e-40 -4.92516e-40 4.94408e-40 4.92942e-40 5.56083e-40
-4.94752e-40 4.92059e-40 4.9384e-40 -4.92883e-40 4.93584e-40 4.92233e-40 4.92938e-40 4.93085e-40
-4.94527e-40 -4.92726e-40 4.91653e-40 4.9057e-40 -4.91462e-40 4.91002e-40 4.90959e-40 4.92265e-40
4.94068e-40 -4.95079e-40 4.99545e-40 -4.97195e-40 4.91426e-40 -4.909e-40 -4.90945e-40 -4.91407e-40
4.93121e-40 -4.90478e-40 4.92954e-40 -4.94378e-40 4.945e-40 4.94077e-40 -4.97171e-40 -3.61392e-40
4.94066e-40 -4.93726e-40 4.90574e-40 4.92802e-40 -5.45534e-40 -4.95146e-40 4.92565e-40 -4.94106e-40
4.93581e-40 4.918e-40 -4.93769e-40 4.93536e-40 4.91772e-40 -4.92632e-40 -4.94349e-40 4.92308e-40
4.96786e-40 -4.91787e-40 -4.92304e-40 -4.9412e-40 4.98305e-40 -4.91208e-40 4.911e-40 4.97612e-40
00000000: 3664 0500 a45d 0500 0c63 0580 085e 0500
00000010: f25e 0580 2174 0580 0f5e 0500 215c 0500
00000020: 8162 0500 7f57 0580 ce62 0500 3565 0500
00000030: 2463 0580 9b61 0500 45ac 0400 b961 0580
00000040: f16c 0580 d161 0500 2a60 0580 de65 0500
00000050: a663 0580 895e 0580 ae5b 0500 7157 0580
00000060: 1860 0580 8662 0580 825b 0500 025d 0580
00000070: c557 0500 1362 0580 2c6d 0500 fd5c 0500
00000080: 1d5b 0580 af62 0580 b45d 0580 f65b 0500
00000090: e261 0500 085c 0500 87b9 0380 d357 0500
000000a0: 2363 0580 0d5e 0580 4dad 0500 475f 0580
000000b0: c05a 0580 785c 0500 f959 0580 6d5f 0580
000000c0: bb60 0580 a85d 0500 b958 0580 e363 0580
000000d0: 805e 0580 0666 0500 c35e 0500 fb5d 0500
000000e0: 7e57 0580 ac5a 0580 c358 0500 755b 0580
000000f0: a15b 0580 8b60 0580 5b62 0580 c364 0580
00000100: 6057 0580 fd57 0500 6161 0500 a260 0580
00000110: e65f 0580 685a 0500 165d 0580 535c 0500
00000120: 555e 0580 7461 0500 8458 0580 525d 0580
00000130: 835a 0500 765b 0500 9f5e 0580 7f62 0500
00000140: 775a 0580 5c5a 0580 3f62 0580 7b62 0580
00000150: ae57 0580 0166 0500 f058 0580 9c6a 0580
00000160: 345a 0580 475d 0500 435e 0500 975d 0500
00000170: 9d5d 0500 115d 0500 1f5a 0580 5c57 0580
00000180: 9060 0580 e85e 0580 c157 0500 df60 0580
00000190: 3a63 0500 9d58 0580 1a59 0500 0061 0500
000001a0: bf63 0580 f562 0500 645b 0500 7c58 0500
000001b0: f058 0580 995e 0500 c059 0500 dc5d 0500
000001c0: 5061 0580 ee5d 0500 d9b2 0580 b65a 0580
000001d0: 8868 0580 1564 0500 d759 0580 a759 0500
000001e0: d85c 0500 b95f 0500 475a 0500 5a63 0580
000001f0: ee60 0580 415a 0580 645a 0580 3c5f 0500
00000200: 5761 0500 6c69 0580 ea65 0500 e663 0500
00000210: 1260 0500 e760 0580 f260 0500 ff58 0500
00000220: 055f 0580 e4c2 0680 705e 0580 165c 0580
00000230: e359 0580 1d5c 0680 c762 0500 3160 0580
00000240: 8e5b 0500 0e5f 0500 fb5a 0500 c660 0580
00000250: f263 0580 7157 0580 b861 0500 6668 0500
00000260: 5959 0500 4d5c 0500 cf57 0500 605a 0580
00000270: 2f62 0500 235d 0500 2859 0580 a85f 0580
00000280: 926c 0500 695d 0580 a463 0580 1962 0500
00000290: d460 0580 425d 0580 2962 0580 0b64 0500
000002a0: ce5b 0500 c164 0500 5262 0500 2f58 0580
000002b0: f659 0500 ea5b 0580 c762 0500 4e57 0500
000002c0: 3b5f 0500 0559 0580 eb5b 0500 8f5e 0500
000002d0: 9e3b 0680 3d59 0580 0b5d 0500 b765 0580
000002e0: d05e 0500 9758 0500 a05f 0580 1b59 0580
000002f0: c762 0580 d660 0580 d2ac 0600 e45d 0580
00000300: ce58 0580 5d58 0580 245f 0500 1d5f 0580
00000310: ef5c 0580 3562 0500 1f5e 0500 220e 0600
00000320: 2b63 0580 a95b 0500 a060 0500 f55d 0580
00000330: e95f 0500 255c 0500 1c5e 0500 855e 0500
00000340: 8a62 0580 855d 0580 875a 0500 8257 0500
00000350: ff59 0580 b758 0500 9858 0500 3c5c 0500
00000360: 4361 0500 1464 0580 8770 0500 fa69 0580
00000370: e559 0500 6e58 0580 8e58 0580 d859 0580
00000380: 9f5e 0500 4157 0580 285e 0500 2062 0580
00000390: 7762 0500 4961 0500 e969 0580 6aef 0380
000003a0: 4161 0500 4f60 0580 8557 0500 bb5d 0500
000003b0: baf0 0580 4464 0580 125d 0500 5e61 0580
000003c0: e75f 0500 f05a 0500 6d60 0580 c75f 0500
000003d0: dc5a 0500 425d 0580 0b62 0580 5b5c 0500
000003e0: d668 0500 e75a 0580 585c 0580 6861 0580
000003f0: 126d 0500 4a59 0580 fd58 0500 246b 0500
