src/models/final_model/models/deepfm_benchmark_opt_v2.pth (torch, 943633 bytes, 33 tensors)

embeddings.0.weight f4 [4, 10]
00000000: 2f5f 9e3f 0983 0fbd 4f47 60c0 d95d 6a3e
00000010: 15d9 f93f 6d97 f0be 0136 7dbf cc63 84be
00000020: 276b ed3f 8a4e d73f fca3 54bf 00a0 26bf
00000030: 656c 7fbf 14bd cebd caec 4bbf c06e 72bf
00000040: 3baf 463f 13a5 45bd 173e a9be 6b5c 913f
00000050: dea9 313f 2a94 a9bf 6964 1b3e b294 d5bf
00000060: 3621 0dbd ecb6 e2be 514d 59be 0d94 76bf
00000070: 84be 7b3e 1d92 be3f 6735 f2be 13cf 5a3f
00000080: b325 ccbe 4182 12be 9378 323d c01d 333f
00000090: 4062 b63d 9abf 03c0 15c2 3c3f 86f9 d83f
1.2372798 -0.035037074 -3.5043523 0.22887363 1.9519373 -0.4699053 -0.9891053 -0.2585739
1.8548325 1.6820843 -0.8306272 -0.6508789 -0.9977477 -0.100946575 -0.79658186 -0.9470024
0.7761113 -0.04825313 -0.33055183 1.1356329 0.6939982 -1.3248341 0.15175022 -1.6686003
-0.0344555 -0.44280183 -0.212209 -0.9631966 0.24584395 1.488834 -0.47306368 0.8547222
-0.39872512 -0.143075 0.04357202 0.6996727 0.089054585 -2.0585694 0.73733646 1.6951149

embeddings.1.weight f4 [2, 10]
00000000: a72f 22c0 975b b23f e54e 963f 24c5 0c3f
00000010: 05da cfbf e80c 3f3f 8d3e 9d3d 4d4a 4fbf
00000020: 74cb 3f40 f8ab 293e b3b3 dbbc ee75 84bf
00000030: 82b7 f3be 441d ac3f 6344 09bf 2150 8fbf
00000040: 0559 2f3f 2e91 aa3f 2505 a53f 9167 d2be
-2.5341585 1.3934201 1.1742827 0.5498831 -1.6238409 0.7462907 0.07677946 -0.8097275
2.9967928 0.16569507 -0.026819086 -1.0348489 -0.47600943 1.3446431 -0.53619975 -1.1196328
0.6849521 1.3325555 1.2892195 -0.4109464

embeddings.2.weight f4 [3, 10]
00000000: 1a4e 343f 9e52 063e cd48 0ebf 3484 483f
00000010: 570a 0dbf 520b 2cbd 72c2 0140 b2f5 133f
00000020: a35b 20be f12a c1be d436 aebf 33c1 cd3f
00000030: af7c 273f 90d7 da3e f3f9 92bf cfc0 3bbe
00000040: b483 8abf 8820 b43e 6a24 2e3e c5ae e7bf
00000050: 812f be3e f30c a6bf 57c1 b43e 3420 2240
00000060: 755e 04bd 28a0 a6bf e491 e6be 850f f9be
00000070: cd1a 56bf 6435 1b3f
0.70431674 0.13117453 -0.55579835 0.78326726 -0.550939 -0.042002983 2.027493 0.57796776
-0.15659957 -0.37728074 -1.3610482 1.6074585 0.6542463 0.42742586 -1.1482528 -0.1833527
-1.0821443 0.3518107 0.17006078 -1.810021 0.37145618 -1.2972702 0.35303757 2.5332155
-0.032316644 -1.3017626 -0.4503318 -0.48644653 -0.83634645 0.6062834

embeddings.3.weight f4 [3, 10]
00000000: 9d67 a63f edbf babd 0a37 17bc 9595 11bf
00000010: e33d 1c3e 604f 833f 381c dabe 27ea d1bc
00000020: d305 66bf 559f 2abf 9df6 b53f 2251 d93f
00000030: a802 14be 4abc 223f eef5 bebe e2a8 b83e
00000040: bed7 733e 2536 b63e dd48 28bf 09e8 2b3f
00000050: 5c5b c6bd 5329 91be 2dbe 853b 4081 343e
00000060: 33d6 86bd dc72 463e 253d 1ac0 40da f3be
00000070: 7625 92bf 2fa9 833e
1.300037 -0.09118638 -0.009229431 -0.5686887 0.15257983 1.0258598 -0.42599654 -0.025624348
-0.8985264 -0.6664937 1.4215885 1.6977885 -0.14454138 0.63568556 -0.37297004 0.36066347
0.23812768 0.35588184 -0.6573618 0.6715093 -0.09685394 -0.2835184 0.0040815086 0.1762743
-0.06583824 0.19379753 -2.409982 -0.4762745 -1.1417682 0.25715014

embeddings.4.weight f4 [596, 10]
00000000: ee67 033f 4df0 d8bf 6fb2 fb3d a0df 603f
00000010: a74d 43bf d2e4 873e ead6 b13d 510f f83e
00000020: 9e43 bcbd 83d5 23bf a444 73bf 21bd 313e
00000030: 0592 7d3e dbfa 783c 943a e33e 1512 a9bf
00000040: 9be3 eebf 6891 9c3f 33f7 0bc0 5d68 9d3e
00000050: 7ff1 f5bd e5a2 a13e 159f 93be 5652 e23f
00000060: 6773 7abf eb9f 89bf 3788 d6be bfa1 b0be
00000070: 93bc 8c3e 1740 5f3f 44b5 9bbf b842 5fbe
00000080: ba28 333f 9953 d63d e8a0 483f 6b99 c2bd
00000090: da37 e73e 240e f43f 4dfd 1fbf ac82 3cbf
000000a0: 3b2f c8bf 09f3 9fbe 20e9 1c3f 3312 47bf
000000b0: dff2 e63f 20c7 b6be 26ff 5fbe 7ade a8bf
000000c0: 45d8 ac3e 1c92 a63e b106 a03f ef47 03c0
000000d0: a98c 6dbf 9178 b03f 5da2 f33f cc43 1c3f
000000e0: f113 ccbc 2af2 09c0 853c b2bf 516b fd3f
000000f0: e427 8b3f 7f11 25bf 1ce3 f9bf 7713 a43f
00000100: 0893 10be 1cb6 dabf ae0a 203f bd38 d8bf
00000110: 6a8f e83e 7e5d 2ebf 1e77 cd3d 6524 f5bd
00000120: 6c09 88be 3164 2cbf fcf0 69bf d897 89be
00000130: 1c26 a4bf 5e3d 9f3e c716 b7bf dc83 f0bf
00000140: 8d8c 0dbf d397 2e3e 3a04 e3bd 1a04 c23e
00000150: 6c41 c8bd 7d45 393f b48a 90bf d613 ffbe
00000160: 50f3 8cbe b34a 8dbf 5f8d ec3e 51ee e73f
00000170: f167 8fbe c178 55be 09df 18be 46f6 f0bf
00000180: 9e19 953f ee7d 82bf 2e1b 6dbf 5995 833e
00000190: 372a 15c0 e8b9 083f f49e e83f ddca acbf
000001a0: 7b1a a93e 74fe a03c 2ea6 82bf 22a4 983f
000001b0: 4faa 233f 14a4 0040 8e96 c0bf 1ce8 c83d
000001c0: 190a 1240 8e9e f53d 0964 b3bf a49b 19c0
000001d0: 75ec 9dbe c570 2b3f d558 06bf cab9 1bbd
000001e0: a153 a0be 769d 833e a847 0a3f 2926 42bf
000001f0: 6ddd 0640 8bfb 96bf b455 723f 74ff c6bd
00000200: adfd 803e 964c a23f 00ed e5bf dc13 923e
00000210: 52a1 05bd cdeb 5fbe 9889 0c3f b8a4 85bf
00000220: 2d8f 0ebf 9adc 14bf 1353 1740 0810 5d3d
00000230: 553f 683f f7e3 4b3f 660c 0c3f f157 91bf
00000240: 5ad3 403f 5357 f23e 82d6 95be 3597 a23d
00000250: 4ba3 2740 f0a9 3a3e 0312 6d3f 6534 d53e
00000260: 76ff 803c c957 05be 8b6f d0be 0072 ffbf
00000270: a267 9ebf 14ed 65bf 4ef2 15c0 c8e5 7f3e
00000280: 3825 333f a4d9 c03e fc3d 8c3f bfbd e83b
00000290: 9808 f5bd 763a b7be 516d a33f 3e63 13bf
000002a0: 5bb4 22bf 087c 4abf f6f0 adbe 3e83 163f
000002b0: 7398 cb3f 172d 0dbb b575 a2bf 47ff 523f
000002c0: 520e e4be e53b 97bf 939a dbbe 4b05 573f
000002d0: 07e2 53bf 9986 1abf ebf0 a83f 61cf 053f
000002e0: 9518 e2bd a904 a3bf a589 2d3f 4611 393e
000002f0: dc3c 0bbf a952 12bf 0c1d 2fbe d141 abbf
00000300: b994 d63e 1aac 8dbf b1e3 3f3f d647 d03f
00000310: 0dd4 a43f f6a1 c7bf eb25 fa3e 8dac cc3d
00000320: 9440 803f 7f14 0dbd a9d6 92bf 00ae 99bf
00000330: f27b c2be caa1 533f 6fc2 683e b1a0 863f
00000340: 85c3 b9bf 4dab 993f 30e7 6a3f c256 593f
00000350: e5b3 d5bf 3f1d 00c0 15fb 6e3f 79a4 2dbf
00000360: 4638 70bf cf10 8f3f 580f 033d 0674 fbbe
00000370: 1a84 42bf f9de 52be 6ed6 63bf 1909 dbbc
00000380: 5c68 adbe a2ba 773f 01f8 0f3f 278d b7bd
00000390: d19f 8cbf 9fe8 a83f 8782 933c 2a47 c53f
000003a0: 3a67 083f 4a7d 3b3f 5cb1 a43e 1b5c 453f
000003b0: 38e5 653f f693 3d3f b56d c53f d672 9cbf
000003c0: 10e1 e3bf 86f8 59bf d2e9 483d 03d5 58bf
000003d0: d8a5 92bf 8629 953f 7a55 c53d d8ca 1140
000003e0: f67b afbe 7295 78bf b289 d1be f2e2 76bf
000003f0: 6feb 6e3d 6eee b8be d1d0 913f 8ed7 163f
0.5133046 -1.6948334 0.12289893 0.87841225 -0.76290363 0.26541764 0.0868357 0.48449185
-0.091925845 -0.6399767 -0.9502661 0.17357303 0.24762733 0.015196527 0.4438063 -1.3208643
-1.866321 1.2231874 -2.1869628 0.30743685 -0.12008952 0.3156959 -0.28832307 1.7681377
-0.9783234 -1.0751928 -0.419008 -0.34498402 0.2748762 0.8720717 -1.2164693 -0.21802795
0.6998402 0.10465164 0.78370523 -0.095019184 0.451598 1.9066815 -0.6249588 -0.7363689
-1.5639414 -0.3124011 0.6129322 -0.77762145 1.8042868 -0.35698795 -0.21874675 -1.3192894
0.3375875 0.32533348 1.2502042 -2.0512655 -0.92792755 1.3786794 1.9033924 0.6104095
-0.024911853 -2.1554055 -1.3924719 1.9798375 1.0871549 -0.6447982 -1.9522433 1.281844
-0.14118588 -1.7086825 0.62516296 -1.6892315 0.45421916 -0.6811141 0.100324854 -0.11969832
-0.26569688 -0.6734038 -0.9138334 -0.2687366 -1.282413 0.31101507 -1.4303826 -1.879024
-0.5529259 0.17050104 -0.110847905 0.37893754 -0.09778103 0.72371656 -1.1292329 -0.4981982
-0.27529383 -1.1038421 0.46201608 1.8119603 -0.28008988 -0.20846845 -0.14928831 -1.8825157
1.1648443 -1.0194681 -0.926196 0.2569988 -2.3307016 0.5340867 1.8173509 -1.3499409
0.33028015 0.019652583 -1.0206964 1.1925089 0.63931745 2.0100145 -1.5045946 0.09809896
2.2818663 0.119931325 -1.4014903 -2.4001245 -0.30844465 0.6696895 -0.52479297 -0.03801898
-0.31313804 0.2570607 0.5401559 -0.7583948 2.1072648 -1.1795515 0.9466202 -0.097166926
0.2519354 1.2679622 -1.7962952 0.28530777 -0.03262455 -0.21867295 0.5489745 -1.0440893
-0.5568722 -0.5814911 2.3644454 0.053970367 0.90721637 0.7964472 0.5470642 -1.1354963
0.75322497 0.47332248 -0.2926522 0.07938997 2.6193416 0.18228889 0.9260561 0.41641536
0.015746813 -0.13021769 -0.407101 -1.9956665 -1.2375376 -0.8981488 -2.342914 0.24989998
0.69978666 0.37666047 1.0956416 0.0071026976 -0.1196453 -0.3578679 1.2767736 -0.57573307
-0.6355645 -0.79095507 -0.339729 0.5879401 1.5905899 -0.0021541768 -1.2692171 0.8242077
-0.44542176 -1.1815153 -0.42891368 0.8399245 -0.82766765 -0.6036163 1.3198522 0.5226956
-0.11039845 -1.2735797 0.67788154 0.18072996 -0.5438974 -0.5715738 -0.17100924 -1.337946
0.4191034 -1.1068146 0.74956805 1.6271923 1.2877213 -1.5596302 0.48857054 0.09993849
1.0019708 -0.034443375 -1.1471759 -1.2006226 -0.37985188 0.82668746 0.2273042 1.0517789
-1.4512793 1.2005402 0.91759014 0.84898007 -1.6695524 -2.001785 0.9335187 -0.6782909
-0.93835866 1.1177005 0.031997055 -0.49111956 -0.7598282 -0.2059287 -0.8899907 -0.026737737
-0.33868682 0.96769154 0.562378 -0.089624695 -1.0986272 1.319599 0.018006576 1.5412343
0.5328251 0.7323805 0.32166564 0.77093667 0.89802885 0.74053895 1.5424105 -1.2222545
-1.7803059 -0.8514484 0.049051113 -0.8470003 -1.1456861 1.1653297 0.09635444 2.2780056
-0.34274262 -0.97103035 -0.40925366 -0.9644004 0.058329996 -0.36119407 1.1391851 0.5892266

embeddings.5.weight f4 [24, 10]
00000000: d104 e23f c61e 92bf 3ef3 02bf 20a7 953f
00000010: 5f83 433f b09f 52bf a307 d43e 9e76 1140
00000020: a48c 26bf e6ea c5bf eac8 0fbf aa7e ea3d
00000030: 478f f1be 052f 4b3e 0fd0 203f 2195 0d3e
00000040: 30a9 723f 003f 8f3f 5e36 bdbe 61ea 57bf
00000050: 6118 6e3f a1b1 57bf b293 00bf 96f4 a8bf
00000060: 7a2a ac3d 18aa bf3f 9c4b f73b a056 9abd
00000070: 16ad 3d3f 48f2 00c0 70d3 173f 5615 a53e
00000080: 7a26 4e3f 2ab7 49be e3e2 9a3f 1553 ec3e
00000090: 3fad 25bf 4984 8e3e 86ba 2ebf 2067 19bf
000000a0: 2b12 323f e759 643f 1db2 a63e 280b 7ebe
000000b0: 3704 8e3f 418a 313d 2dab 95be 60c0 fa3f
000000c0: dc41 e6be 0054 e5bd 4b92 c73f c6f7 ee3f
000000d0: 42d5 043f 4a6f 2bbf c1ca 56bf a728 2a3f
000000e0: 8811 61be bb66 433f 72cb 133d 3c00 a9bf
000000f0: 4af9 b7bf b789 95bf 34f8 903e 5187 f73d
00000100: 81af af3f abfe 50be dcd9 febe db1d 103f
00000110: ae53 67bf b1a2 663e d137 f83e cb0a af3d
00000120: 148d 853d ce28 73bf f582 35bf 3d55 cb3d
00000130: c704 dcbe b12b 8d3e d6b7 2bc0 73c0 d8be
00000140: 84c2 c73e 371d 53bf 6ff4 05be 807c b9bf
00000150: c3d5 823f 9732 36bf c517 95be 5ba7 fdbe
00000160: ac31 e6be 04fb b5bf 2e19 8bbe 23a0 c83e
00000170: b631 1a3f 62c5 b73f 69ce 95be 8430 bf3e
00000180: f4ec da3c 7368 91bf ebea 5fbf 0de2 d0bf
00000190: 34b9 8b3e b29e 463e f50b 00c0 fb53 64bf
000001a0: d90b ac3f c2ee f4bf c7f4 80bf cc84 76bf
000001b0: 3cdc 3cbf ab19 ea3e 6319 23bf ea0f 7c3e
000001c0: c0dd 503f e723 5a3f 7b48 093e a3ca 813f
000001d0: 91c0 17c0 a0c3 ff3c 5e44 0940 f6f9 1a3e
000001e0: 77a8 4fbf 2646 843f fe85 053f 8e56 893f
000001f0: a14e e6bf 8652 cfbd 94ee 1c40 6dd6 cbbe
00000200: c3ce ef3e c5b7 cbbd bacf 243d 0d45 bd3c
00000210: 6ba5 193f b467 1ec0 ba14 95bf e02f 0cbe
00000220: b7d3 973f 5d3d 843f 8270 56bd 76ea 283d
00000230: aa18 673f 18d5 a5be deaf 8cbf fac5 bebd
00000240: 0c80 a7bf 75a4 2abf 1e08 0bbf 9d23 9abe
00000250: eeca b73d 8684 0cbe 4908 2f3f 9724 a3bf
00000260: 1e8c 9b3e 2bf2 0abe 2ba1 38bf 1deb a9bf
00000270: 9dac 96be 6419 933f 8c84 e53e 3df6 bc3e
00000280: 28eb cc3f 6092 4abf b446 c33f e09a 30bf
00000290: 915e 7bbe 4e8f e2be 969b bd3f be03 3c3f
000002a0: e6ec 973e 78a4 dabe 7ddd 343e 0b6c 8fbf
000002b0: f1ea a1bf 3e6a 303e cf4b 19bf 5067 80bf
000002c0: eee7 c1be 1522 a0bf 1f3c 99bf 255e 833f
000002d0: 1216 63bf 8e1f c73f 8ff2 d3be e722 ccbd
000002e0: a0c7 77be 19d5 fabe 00b5 72bd 1355 dd3f
000002f0: 054b 7ebf 2a36 6f3f 4de0 353f bd1f 52bd
00000300: 1776 513f ca70 a63f c470 5f3e 7e85 b2bf
00000310: 6fab 123f 3adc 433e 3e20 053e e5ab e83e
00000320: f13e 433e 08c8 103f 87f0 9d3f 0c04 703f
00000330: 86be d33f b593 cbbe 6726 b3be bdd9 40bf
00000340: 7e7f b13f 361e 363f 5ed7 cb3c 6ead ab3e
00000350: 1ce4 a2be e02f c9bc 4d94 9f3e e6a7 5abe
00000360: 6e4e 8b3b 8249 6d3f 82c9 bb3e a2f3 ad3e
00000370: c2a1 d83f ee78 543f 7a41 fabe f7b8 2bbe
00000380: e8fa 013f 2966 e4be 58f1 b43d 3c69 183e
00000390: 4284 8dbe fc35 ae3f e625 acbe 495a c2bf
000003a0: ddfd d8be e341 963f 7726 893f 26fe 0a3f
000003b0: 1c79 a53f 3fb8 64bf b84a de3e b8b7 f33e
1.765772 -1.1415641 -0.5115241 1.1691628 0.7637233 -0.82274914 0.41412076 2.2728648
-0.6505835 -1.546231 -0.56165946 0.114499405 -0.47179624 0.19842155 0.6281747 0.1382642
0.9478941 1.1191101 -0.3695554 -0.8434201 0.9300595 -0.84255415 -0.50225365 -1.3199642
0.08406539 1.4973783 0.007546855 -0.07536054 0.74092233 -2.0147877 0.59307003 0.3224284
0.8052746 -0.19698778 1.210049 0.46157137 -0.6471748 0.278353 -0.6825336 -0.5992298
0.6955897 0.8919968 0.32557765 -0.24808943 1.1095036 0.04334474 -0.2923216 1.9589958
-0.44972122 -0.11197662 1.559152 1.8669364 0.51887906 -0.6696669 -0.8390313 0.6646828
-0.21979344 0.7632863 0.036082692 -1.3203197 -1.4372952 -1.1682652 0.28314364 0.120863564
1.3725435 -0.20409648 -0.4977559 0.56295556 -0.9036206 0.22523 0.48480085 0.085469805
0.06521049 -0.9498414 -0.7090295 0.09928367 -0.42972395 0.27572396 -2.6830955 -0.42334327
0.3901559 -0.82466453 -0.13081525 -1.4491119 1.0221485 -0.71170944 -0.29119697 -0.49541745
-0.44959772 -1.4217229 -0.27167648 0.39184675 0.602321 1.4357111 -0.2925904 0.37341702
0.026724316 -1.136 -0.8746783 -1.6318985 0.27289736 0.19396475 -2.0007298 -0.89190644
1.3441116 -1.9135363 -1.00747 -0.9629638 -0.7377355 0.45722708 -0.6371061 0.24615446
0.81588364 0.8521103 0.13406555 1.0139965 -2.3711283 0.031221211 2.1447978 0.15134415
-0.8111643 1.0333908 0.5215758 1.0729539 -1.7992746 -0.10123162 2.4520617 -0.3981203
0.46837434 -0.09947161 0.040237166 0.023104215 0.6001803 -2.4750795 -1.164695 -0.13690138
1.1861485 1.0331227 -0.05235339 0.041239224 0.9027201 -0.3238914 -1.099117 -0.09315105
-1.3085952 -0.6665719 -0.5430926 -0.30105296 0.08974253 -0.13722429 0.6837202 -1.2745541
0.30380338 -0.13568942 -0.7212092 -1.3274876 -0.29428568 1.1492124 0.44827688 0.36906615
1.6009264 -0.791296 1.5255952 -0.6898632 -0.24547793 -0.44249958 1.4813106 0.7344321
0.29672927 -0.42703605 0.17662616 -1.1204847 -1.2649823 0.17228028 -0.598813 -1.0031528
-0.3787226 -1.2510401 -1.1971473 1.0263106 -0.8870555 1.5556505 -0.41395995 -0.099675946
-0.24197245 -0.48990706 -0.059254646 1.7291588 -0.9933322 0.9344202 0.7104538 -0.0512998
0.81820816 1.300317 0.2182036 -1.3946989 0.57292837 0.19126979 0.1300058 0.45443645
0.19066979 0.56555223 1.2339028 0.93756175 1.6542518 -0.3976113 -0.34990236 -0.7533224
1.3867033 0.7113985 0.024882969 0.33530754 -0.3181466 -0.024558961 0.31167832 -0.2135311
0.004251293 0.9269029 0.36677176 0.3397494 1.6924365 0.82997024 -0.4887808 -0.16769777
0.5077348 -0.44609192 0.08835095 0.14883894 -0.27639967 1.3610225 -0.33622664 -1.5183803
-0.42381182 1.1738857 1.0714864 0.5429405 1.2927585 -0.8934364 0.4341638 0.47601104

embeddings.6.weight f4 [212, 10]
00000000: bbd3 0ebf 3403 67bf 801b 963f 8608 a2bf
00000010: 3e76 fabd 6194 84bf d6ba 323e 3c22 7cbf
00000020: 410f 0bbf 417b 0abf 571d c1bf 7254 0bbe
00000030: c9ee aebf b3eb 923f 20bd c63e b91c d13f
00000040: 89ac 67bf 5ac0 533e dbdd fdbf 5d09 1fbe
00000050: 5b5b 2fbf 93b1 543f 583e 83bf e047 30be
00000060: 75ca 54be 1eb9 3040 f512 eb3d 5712 213f
00000070: eddd ef3e f63d c73f 5dda b5bd ceaa cc3f
00000080: e328 203f b35c 013f fa70 89bd 0ce2 553e
00000090: 85f5 a0be b44b 223f a194 d83f 700c b23e
000000a0: f0f1 5d3f 5f2d 113e 2dab bc3d 5761 95bd
000000b0: 50b4 943f 5dfa dbbe 2b74 77bf ca68 6bbd
000000c0: 12b5 4cc0 645b 6bbd 032e 8fbf 372c eb3f
000000d0: df1c e43e 5249 cfbe 9f9a 1abf 0afa c7bf
000000e0: 073a 15bf c745 1b3f af13 1ebf fc19 bf3e
000000f0: ee28 ac3f 5f8a aa3e 39f4 a5bf 1264 03bf
00000100: d46f c1bf 51e6 bcbf ac12 ad3e efae 5ebd
00000110: 1706 c93f 3c3c 633e 653e a53f 65c4 6e3f
00000120: 6536 313e a20f cd3f 01f5 873f b19b 91be
00000130: 11a6 c33f 7432 303f 240b a03c 2272 3abf
00000140: fae5 0dc0 a3bc 5d3f 4ca1 e43f d2ac d43f
00000150: ff68 c8bf c256 c3bc b82f 1e3f d07c 64be
00000160: 8acc b33f 18d2 b63e 2dad 803f 7d4b cebf
00000170: b1bc 313e 1ca4 bf3f 40ba e0bf 0d3a 20bf
00000180: 9e45 ca3e eda4 843f 6c74 523d c220 a53e
00000190: e2ef 343f 41b4 d93f 55cd 98bf 5e87 23bf
000001a0: cd51 f73f db92 80bf bc18 463f 00e7 b03e
000001b0: 167b c1be 69b8 353f f183 2cbe 4cca 4e3e
000001c0: 12fe dd3e 210a 833e 27ee 313e b092 0040
000001d0: 2259 12be 0e45 26c0 ebe0 383f cea8 6abe
000001e0: 4c37 ca3f d868 193e b694 bd3f 169c 60be
000001f0: 8c78 4d3f c7af 3dbf 8f4d 093e eee3 8dbf
00000200: e0a8 373e 33e0 943c c8d1 713f 6398 b3bf
00000210: bb0b f4bf 1236 d1be 4daa 893f ec0f ae3d
00000220: 6c0f 903e ed3e 113f bfa2 7a3e 2951 ef3e
00000230: 5125 563f 2def 2dbf 1dbe 193e 3db6 41bf
00000240: 9723 f23c 388b b03f 2cf5 93bf 1cdd ae3f
00000250: 9481 96bf c6c6 8dbf 1b4f 3f3f a280 89be
00000260: fe84 3e3c 2376 39bf aea0 023e 0b5b 53bd
00000270: b66f c1bf c608 963f a265 91bf 30b0 233f
00000280: 6a8e ea3f d8db febe 25ed a3bf 82e7 72bf
00000290: 9b64 c2bf c450 493f 8335 0abe d35a d9be
000002a0: 1213 4a3f 5140 86bf 6eeb 30bf e54b 9bbf
000002b0: f8fc bebf a6ee b73f f424 be3f aa21 efbf
000002c0: e797 adbd e8fc 2c3e 41d5 873f ffcc e8bf
000002d0: d7b0 3fbe ca7d b53f 0eb5 833d e02f 4b40
000002e0: c56f e1bd 3564 51bf b22a 01c0 207c 06bf
000002f0: 7aae a43f d72e e03f 52d6 a4bf 94a2 9bbe
00000300: c161 92bf c452 503f 0efe 313f 47b2 df3e
00000310: 99ec 09bf 91de 823e cbd3 2bbf 1bde 55bf
00000320: 4fd7 62be 98e0 5140 fdec 09bf e899 bebf
00000330: 1d07 283f 1fd5 8e3f beca b63e 5177 793d
00000340: 59f7 b5bd 814d 8c3f 4e2e b53e 6137 eebc
00000350: 7fe5 1e3f c278 bc3f b613 80bf c033 073e
00000360: 3923 993f c7b0 a3be 4733 ef3e 5af3 0a40
00000370: e320 8abf 8270 27bf 1878 d2bf f8fe 12bd
00000380: 96bb b03f 4310 8dbf 55c7 ae3f ecae c33f
00000390: c8da f2bf b715 28bf 4c11 43bf de11 9d3e
000003a0: 6f85 cb3f 84a7 ff3d 0ced b73f 1a21 3b3e
000003b0: 1c2d a4bf abb6 323e 6b87 0e3e dc66 c8bd
000003c0: fe8c 5a3f 490a f1be 966d b03e 0dfe 893f
000003d0: 6fe7 32be b097 88bf 6dfc 303e 9949 9cbf
000003e0: 13ba e33d d933 68bf b073 67bf d2ab 9d3e
000003f0: 8329 1a3f 5320 a9bf cf6f e63e ab7c 35bf
-0.55791825 -0.9023926 1.1727142 -1.2658851 -0.12229584 -1.0357782 0.17454085 -0.9848974
-0.5432015 -0.5409432 -1.5087079 -0.13606432 -1.3666621 1.147818 0.38816166 1.633689
-0.9049764 0.20678845 -1.983333 -0.15530916 -0.6849877 0.83083457 -1.0253401 -0.17214918
-0.20780356 2.7612987 0.11478225 0.6291861 0.46849003 1.5565784 -0.0887954 1.5989625
0.6256239 0.5053207 -0.06711002 0.20887011 -0.31437317 0.63396764 1.6920358 0.34775114
0.8669729 0.14177464 0.09212337 -0.07293957 1.1617527 -0.4296445 -0.96661633 -0.05747298
-3.1985517 -0.057460204 -1.1185917 1.8372868 0.44553277 -0.40485626 -0.60392183 -1.5623181
-0.5829167 0.60653347 -0.61748785 0.37324512 1.3449991 0.33308694 -1.2965156 -0.5132457
-1.5112252 -1.4757787 0.33803308 -0.05436605 1.5704983 0.22190946 1.2909666 0.93268424
0.17305906 1.6020396 1.0621644 -0.28439096 1.5285054 0.68826985 0.019536562 -0.728304
-2.2171617 0.8661596 1.7861724 1.661524 -1.5657042 -0.02384508 0.61791563 -0.22313237
1.4046795 0.35707164 1.0052849 -1.6116787 0.17357136 1.4971957 -1.7556839 -0.6258858
0.3950624 1.0362831 0.05138056 0.32251555 0.7067853 1.7008134 -1.1937662 -0.6387843
1.9321839 -1.0044817 0.7738149 0.3455124 -0.3778922 0.7098451 -0.16847207 0.20194358
0.43357903 0.25593665 0.17376004 2.008953 -0.14291814 -2.5979648 0.722182 -0.22915956
1.5798125 0.14981401 1.4811008 -0.21934542 0.80262065 -0.7409634 0.13408493 -1.1085184
0.17935514 0.018173313 0.94460726 -1.403088 -1.906608 -0.40861565 1.0755097 0.084991306
0.28136766 0.5673664 0.24476145 0.46741608 0.8365069 -0.6794308 0.15013929 -0.756687
0.029557986 1.3792486 -1.1559196 1.3661227 -1.1758294 -1.1076286 0.7473008 -0.26855952
0.0116283875 -0.7244589 0.12756607 -0.051600497 -1.5112216 1.1721427 -1.1359141 0.63940716
1.8324711 -0.49777102 -1.2806746 -0.948845 -1.5186952 0.78638864 -0.13496976 -0.42452106
0.7893535 -1.0488378 -0.6910924 -1.2132536 -1.492095 1.4369705 1.4855027 -1.8682148
-0.08476239 0.16893351 1.0611955 -1.818756 -0.18719803 1.4179013 0.06431018 3.174797
-0.110076465 -0.8179353 -2.018231 -0.5253315 1.2865746 1.7514294 -1.2877905 -0.30397475
-1.1436082 0.8137629 0.6952828 0.43690702 -0.53876644 0.2556043 -0.67120045 -0.8354203
-0.22152446 3.279333 -0.5387724 -1.4890718 0.65635854 1.1158789 0.35701555 0.060904805
-0.088850684 1.0961152 0.3538689 -0.029079141 0.62068933 1.4724352 -1.0006015 0.13203335
1.1963874 -0.31970808 0.4671881 2.171103 -1.0791286 -0.6540605 -1.64429 -0.03588769
1.3807247 -1.1020588 1.3654581 1.5287757 -1.8973017 -0.65658134 -0.7619827 0.30677694
1.5900096 0.12483123 1.4369216 0.18274346 -1.2826266 0.17452495 0.13918845 -0.09785244
0.85371387 -0.4707816 0.34458607 1.0780655 -0.17471097 -1.0671291 0.17283793 -1.220996
0.11119475 -0.90704113 -0.904109 0.3079515 0.6021959 -1.321299 0.45007178 -0.70893353

fm_linear.weight f4 [1, 92]
00000000: fc52 39ba c13e 563c f63b 30bb 0792 57ba
00000010: b53a 6bbb ffdd 44bc 5e37 913c bfd9 1bbc
00000020: 4214 0fbc c82c 12ba 2420 f6bb 2c4c 783b
00000030: bb34 33b9 62a2 803a cc4b 9439 3e67 fdbb
00000040: 9e44 1d3b 18b0 c03b 079b f536 7624 493c
00000050: ca1f cbbb 6eb7 b8b9 6c04 783d 3601 fbbc
00000060: 1200 473d 363f 67bd f1c8 2e3d 7280 5abd
00000070: eaec 1ebc 2819 5b3d da6a bd3b 0196 e03d
00000080: a58f 67bf ac90 aa3d 5b14 223e ff32 b1bd
00000090: 4bc8 a5bc 0a5c 883d ea2f a3bb c370 8bbc
000000a0: ab7f 953d e051 ad3d 1526 943d 888b 083c
000000b0: 4ad9 a0bc b936 e8bc 1079 13bc e14f 06be
000000c0: e759 2bbd 8d90 953c cb3d e93c e9c6 8a3d
000000d0: 6ab8 9d3d 872b d03d 82a2 0c3a 6cbb e0bb
000000e0: cd45 a9bd fe07 95bd d706 bdbd 39f8 6dbd
000000f0: 68a6 aabd 720e 82bd f22c da3b 03d7 4d3c
00000100: a725 dd3b 2ebc 2f3c fb04 5a3a 3345 973a
00000110: 3b6c 2c3c 9adb 843a f5f6 06bc 0390 d0bb
00000120: fe75 b7bb 19a8 0b3c faba c3ba db7d c8bb
00000130: 7c73 50bc 6927 53bc 989b 14bc b066 08bc
00000140: 65e0 c13b d0ed 84bb 5b21 f03b b978 f33b
00000150: 79d4 56bc 00bc 81bc 17e4 cbbc 6432 bf3c
00000160: 7947 4abc 84e1 733c d9ee ab3c 89b9 023c
-0.00070695556 0.013076485 -0.0026891208 -0.0008223359 -0.0035893146 -0.012015819 0.017726596 -0.009512364
-0.008732857 -0.0005576131 -0.0075111557 0.00378872 -0.00017090414 0.0009814019 0.00028285233 -0.0077332547
0.0023997198 0.005880367 7.3196165e-06 0.012276759 -0.006198858 -0.0003523188 0.060551092 -0.030640226
0.04858405 -0.056456767 0.0426721 -0.05334515 -0.009700039 0.053490788 0.00578056 0.10966111
-0.9045356 0.08328375 0.15828077 -0.08652305 -0.020237109 0.0665818 -0.004980077 -0.017021542
0.07299741 0.08462882 0.07233826 0.008334048 -0.019634861 -0.028346406 -0.0090010315 -0.13116409
-0.041833784 0.018257404 0.028471848 0.0677622 0.0770119 0.10164552 0.0005364792 -0.00685828
-0.082652666 -0.07276915 -0.0922982 -0.05809805 -0.08332521 -0.063504115 0.00665819 0.01256347
0.0067488733 0.010726018 0.0008316782 0.0011541009 0.010523851 0.0010136247 -0.00823759 -0.006364824
-0.0055987826 0.008523964 -0.0014933043 -0.0061185188 -0.012722846 -0.012887814 -0.0090703 -0.008325264
0.0059166425 -0.00405667 0.007328195 0.0074301627 -0.013112181 -0.015836716 -0.024889035 0.023339458
-0.012346142 0.01488531 0.020987915 0.007978805

deep.0.weight f4 [512, 92]
00000000: 0f7d 8f3d 3484 763d 60e6 0abd 299f d3bd
00000010: 27c1 73bd 0df8 aabd b2f2 ba3d f028 be3c
00000020: c9e7 f33d ffea 043e 1821 2ebe ac0a a03d
00000030: 75b9 e73c ef1b 22bd d1d9 efbd 540d 71bd
00000040: abe4 293d 7968 00be ac5e 23bd 7eb0 e03b
00000050: fb2c 4c3d 74b3 acbb 45f0 01be b6cd 9d3c
00000060: ceb5 603d b0b7 d83c c1f3 46bd fc16 4c3d
00000070: c903 8ebc affb 343e f5bc 2bbe 9726 2abe
00000080: 37db 903d 4d0d 5d3d c217 753d dc2f 75bd
00000090: cf33 cd3d 4e91 f13b 4a57 13be f00d 43bd
000000a0: 48f0 0fbe 4a24 ab3d 017f 1abe 07ae 733d
000000b0: 1368 f83c d815 e8bd 5577 c43d fe19 edbd
000000c0: 2560 03be 3104 533d 36d2 033e cec1 6c3d
000000d0: e1b1 0fbe b420 b93d 97c9 913d d96f 033e
000000e0: 142d ddbd e364 30bd 3a38 63bc b9e7 f93d
000000f0: 9d88 ec3d a001 8c3d 8a7c c93d 0bf8 c4bd
00000100: 03ba 73bd d02c e63d 189a f03c 6770 a43c
00000110: 0d99 ac3d 85b4 8e3e 6f84 52bd 521d 1b3c
00000120: 3637 73bd 306f d33a 0abe ad3d 93d9 febd
00000130: d308 95bc 29b6 463d c2e7 263d 379f 38bd
00000140: c978 ff3d 7ede c33d d638 153d 3e46 06be
00000150: 85a4 fb3b 5785 29bd 8678 04be 273c 3bbe
00000160: b299 303d 64b3 f8bc 3354 64bc 292a cdbd
00000170: ffa0 78bd bdc9 ee3c 8fe3 523a 9db5 e5bb
00000180: 55e2 713d 2dee 2b3c 4b44 4ebe 4f16 ddbd
00000190: b331 62bd 051d e4bc 5497 8d3d 09c7 ec3d
000001a0: d4ad 603e df72 033d 3823 313b 658c cc3d
000001b0: aa9f 37be 8fa6 f33d a8dd 2abe 741b c53d
000001c0: 37ae 963e b6c2 ea3c 0f10 e03d c49f 023d
000001d0: 9233 993d 475e 06be cfac b7bb 6bd9 e4bd
000001e0: 88d9 cbbc fa33 7f3d 07aa e6bc f195 183b
000001f0: a9e9 833e b0bf 0cbd 9258 86bd 94e8 da3d
00000200: a282 f83d 9227 823c 3601 923d e48b 3f3c
00000210: 7a5e a8bd 455a e0bd c650 873d 1724 66bd
00000220: 8f50 d93d a873 5c3d 379b 803d d041 b5bd
00000230: 01cc bcbc 8bfe d2bd 17c7 94bc 7a8e df3c
00000240: 8a67 953d 8dec 01be 8225 cdbc d282 34bd
00000250: 0b0f 3e3e 03b2 a43c fa8a 5f3d f2ea 183d
00000260: d041 b3bd 3ec5 d9bd c35f bbbd 0711 763d
00000270: e814 e13c f057 883d 0a97 02be b206 5fbc
00000280: 8431 223e 09f8 71be 4f58 2ebe b83c e7bd
00000290: e30f 27be 508c 6fbd cfa5 afbd 4c98 98bd
000002a0: 2f85 6d3d 6c55 c0bd 155f d43d c31d 98bd
000002b0: ce01 99bd 80f3 7cbd db13 f13d d695 9f3d
000002c0: b08d 903d 5662 acbc c4e6 8dbd 3cf1 0a3e
000002d0: b5a2 dfbd 8125 af3c 3373 b9bd fd0f ba3d
000002e0: d7dd 19be 134b 01bd 902b d8bd 9978 353e
000002f0: 93c7 09be 5969 613c 2de1 843c 59f1 c43d
00000300: c004 36bc a56a 8ebd bb78 893c 98ad bebd
00000310: 1b06 843c a692 243e fa3a 4bbd a855 79bd
00000320: bacf 6d3e 7a24 a93b d02e 363e 17a6 113e
00000330: 9dd3 893e ec6e 88bc 84a1 3cbc 31d6 83bd
00000340: fe4a 36bd ba51 bdbd bff0 1b3d 12af 14be
00000350: aa17 f0bd 16a3 81bc 3d34 033d 5a7b ffbd
00000360: 2b57 073e a53c e43c 0a08 b6bb fbda bcbc
00000370: e957 943c 9602 a5bd 8815 b1bd 11d9 a4bd
00000380: 072a 023d 5172 febc 2cae 053d 890e a03d
00000390: ca6e 933c f6e2 703c b7ad 43bd ffd9 a03c
000003a0: 006d dd3d 5dc9 d43d 038c 5bbc b642 b03c
000003b0: e22b f2bd d53a 333c 2dc7 723c da74 bb3c
000003c0: a9d3 f6bd c500 483d 8df6 6abd 4282 d43d
000003d0: 3f98 a5bc 34df 3dbd 6598 37be d268 b63d
000003e0: 80ed 0dbe 72a2 483d 16bf b2bd 46b4 363e
000003f0: 9685 8d3e bfa2 34be bfdd 5fbd bc5e a7bd
0.07006275 0.060184672 -0.03391111 -0.10333092 -0.059510376 -0.08348093 0.09128322 0.02321288
0.11909444 0.12980269 -0.17004812 0.078145355 0.028286675 -0.03957742 -0.11711467 -0.0588506
0.04147784 -0.12539853 -0.039885208 0.006856977 0.049847584 -0.005270416 -0.12689312 0.01926313
0.054860882 0.026454777 -0.048572306 0.049826607 -0.01733579 0.17674135 -0.167713 -0.16616283
0.07073062 0.053967763 0.05983711 -0.059860095 0.10019647 0.007372058 -0.14388767 -0.047620714
-0.14056504 0.08356531 -0.1508751 0.059492137 0.030323064 -0.11332291 0.09593073 -0.11577223
-0.12829645 0.05151767 0.12873158 0.057802014 -0.14032699 0.09039441 0.07118528 0.12835635
-0.107996136 -0.043064963 -0.013868386 0.12202401 0.115494944 0.068362474 0.09838207 -0.09617623
-0.059503566 0.11239016 0.029370353 0.020073129 0.084276296 0.278721 -0.05139583 0.00946744
-0.059378825 0.0016131159 0.08483513 -0.12443843 -0.018192684 0.048513565 0.040748365 -0.045073714
0.1247421 0.095639214 0.036431156 -0.13112733 0.0076795244 -0.04138693 -0.12936601 -0.18284665
0.043115325 -0.030358978 -0.01393609 -0.10017807 -0.060700413 0.02914893 0.0008044773 -0.0070101754
0.059053738 0.010493797 -0.20143239 -0.10795271 -0.055223178 -0.027845869 0.06913629 0.115614004
0.2194131 0.03209197 0.0027029049 0.09987716 -0.17932001 0.11897003 -0.16686118 0.09624377
0.2942979 0.028657299 0.10940563 0.031890646 0.074805394 -0.13121901 -0.005605317 -0.11174282
-0.024884 0.062305428 -0.028157247 0.0023282731 0.25764206 -0.034362495 -0.06559862 0.10688892
0.12134291 0.01588801 0.07129137 0.011691067 -0.08221145 -0.109547175 0.06607203 -0.05618676
0.106110685 0.053821236 0.06279605 -0.08850443 -0.023046495 -0.103024565 -0.01816134 0.027289618
0.07295139 -0.12687893 -0.0250423 -0.044070072 0.18560426 0.020104414 0.054575898 0.037333436
-0.08752787 -0.10633324 -0.091491245 0.060074832 0.02747579 0.06657398 -0.1275293 -0.013612436
0.15839201 -0.23629774 -0.17025875 -0.11290878 -0.16314654 -0.05848342 -0.08576547 -0.07450923
0.057988342 -0.09391293 0.10369698 -0.074275516 -0.07471047 -0.061755657 0.11771365 0.07792251
0.07058275 -0.021042984 -0.06928781 0.13568586 -0.10919706 0.021380188 -0.09055176 0.09085081
-0.15026031 -0.031565737 -0.10555184 0.17721786 -0.13455038 0.013758027 0.016220653 0.09616346
-0.011109531 -0.069539346 0.016781202 -0.09310454 0.016116193 0.16071567 -0.04961679 -0.060872704
0.23223773 0.005161819 0.17791295 0.14223514 0.2691926 -0.016654454 -0.011513118 -0.06437338
-0.044505112 -0.09244104 0.03807139 -0.14519909 -0.117232636 -0.015824836 0.03203224 -0.12474699
0.13216846 0.027860949 -0.0055551575 -0.023053637 0.018108325 -0.08057134 -0.08646685 -0.08049215
0.03177836 -0.03106037 0.032636806 0.07815272 0.017997164 0.014702549 -0.04777309 0.019635199
0.10811806 0.103899695 -0.013400081 0.021516185 -0.11824776 0.01093932 0.014817995 0.022882868
-0.1205209 0.04882886 -0.057364035 0.10376407 -0.020214198 -0.04635544 -0.17929228 0.08906712
-0.1386013 0.048983045 -0.08727853 0.17842206 0.2764098 -0.17640208 -0.054654833 -0.08172366

deep.0.bias f4 [512]
00000000: 8e0f 1fbe 2732 a6bd 4fe3 14bd 76e1 283d
00000010: e1a1 68bc 3c8b a5bd 44c1 9a3c bb4f 173d
00000020: 4d10 0cbe 5391 883d 1cb7 5fbd 59ad 433e
00000030: 0660 84bd c03e c4bc 1a4f 44bc f56a 79bd
00000040: c720 273d 137f 4ebb d30e 1cbe 10a0 5ebd
00000050: 1223 c1bb c21d aabc 13c9 913a cac5 4e3d
00000060: a4dc c6bb e9a4 d2bc 72bb 39be e4a2 1bbe
00000070: 0130 103d ab10 c2bd dc8a 23be fd24 36bd
00000080: 3f3c c9bd a65e 543b 8e5d 16be fcea 7e3c
00000090: 9e68 013d 4812 33bd 7312 0d3c 2e8b 1abe
000000a0: eb7d 03be 614f 03be f595 2e3b 7a9d 18be
000000b0: 9dd1 01bd 9900 2cbd e5a6 78bd 7e1e 2cbc
000000c0: 329f 62bd 2062 86bd a523 dcbd aa70 cebd
000000d0: 3810 33bd 6d35 98bc 1063 f8bc ba57 a4bd
000000e0: 7e25 f9bc e6e1 66bd 28a4 0fbe 35a4 e5bd
000000f0: 0895 bcbc 72fe e43d 0fcf 35be 1711 6c3d
00000100: 8683 33bc 4511 62bd 92b5 cfbc 23fe f9bd
00000110: 6561 4d3c bc5c 16be 79a0 19be d594 97bc
00000120: be48 00be f9e0 08be d1ca c63b 976c 05be
00000130: 45ab c7bb 470b 3bbd 70b1 d2bc 48f9 6e3c
00000140: 7280 b0bd 34c0 813c 229f 5ebd fcdb 39bd
00000150: d5bf 02bd c209 29bd 68e5 febd b6f9 5ebd
00000160: 2419 cd3c 2765 98bd 0b75 f0bb b3e7 6bbd
00000170: a053 1d3c 1805 9bbd 1b88 04bd ed1b 0cbe
00000180: b3fa 62bc 5691 253d 428c 68bd a701 21bc
00000190: 5175 f6bd adf5 873c ea09 1cbe ff45 72bd
000001a0: 85c6 cfba 65c0 7d3b b114 c8bd 2fba 1ebe
000001b0: 6bd2 08be b06e bbbd 8f9c 0abe 58cc 03be
000001c0: 9542 87bd dd82 f4bd d9fe 24bd 0403 f33b
000001d0: 0c6b 35be 031b 90bd 8f94 563d 07e0 9abd
000001e0: c002 a23c ef76 0ebe d458 1fbe f421 a0bc
000001f0: d3cf 333c 77f9 ccbd 7495 4dbe bec2 debd
00000200: 32f8 0abe 8e77 a2bd d3d8 86bd 291e 1ebd
00000210: 0fdc b439 2c8e 00be 81f7 cb3b 3662 92bd
00000220: 7223 f8bb 7c28 443d 7ded 2cbe 0b85 633e
00000230: c44a 88bd 2012 373c 4d27 6cbb 096b 18be
00000240: 6624 18be eb06 8cbd c5ab 1ebe 8d12 eebd
00000250: 5ab3 49bd 8fb8 a23d fc40 e33c 2422 0ebe
00000260: bc84 18be ae5a 0bbe cd95 5cbc 9f94 f5bd
00000270: 6f12 f1bd 3c1c 0fbe e201 dabd 9660 22be
00000280: 6df3 7ebc 80bd 1ebe 53c3 ad3c f3ce 27be
00000290: b6f7 dfbd ab67 bebd 2f71 0fbd 2f4b 553b
000002a0: 09de 62bd de30 14be 19e8 a9bd 995e 093b
000002b0: e1cf f4bb d3dd 923d 8bb8 cf3d 8395 63bd
000002c0: d640 97bd 7167 0fbd 42ea 43bb 5d4d a53c
000002d0: 0d53 59bd 10ed c8bd d58d 8dbc eeae 72bd
000002e0: 4184 6bbd 5978 39be 8cb8 c0bd d234 2dbe
000002f0: b339 bbbd e2fd a2bd 4909 7f3d 001e bcbd
00000300: 67b0 2abe c3be d9bd fd61 8f3b f54e 03be
00000310: 50ab 22bd 686b ec3b 9cde 8cbd dba0 e03c
00000320: 1ab4 203c 03e8 febd 7487 8e3e 09bd c5bb
00000330: 4299 17be bdd4 ffbd 04e3 92bd a943 00be
00000340: 9889 b0bd a162 26be 1e72 84bd 196f 04bd
00000350: 1599 16bc 3ee2 3d3c a8de 01be 8818 83bd
00000360: 1827 20be d8c1 1dbd 2ed7 0abd 4fa3 02be
00000370: 0cf5 00be 7077 42bd c1a5 8dbd e882 15be
00000380: dc9c f0bd b123 4dbd 81c4 1fbe fd1c f9bb
00000390: e7ce c53d 3125 0ebe 3800 1bbe b88c f1bd
000003a0: be98 3d3d c7f4 04be 7599 92bd c069 be3d
000003b0: f771 8bbc d679 30bd b898 73bd 8f22 c2bc
000003c0: 3a04 f2bd 2859 d4bd a53e d6bd e1ef 1cbe
000003d0: fc30 babd 005d eabd 7616 51bc 8412 22be
000003e0: 80ac 0f3d 369a 0bbe 52e3 32be 992d 80bd
000003f0: 93bf 623d 39ce f9bd 8981 24bc fd04 31be
-0.15533277 -0.081150346 -0.03634959 0.04123064 -0.014198751 -0.080831975 0.018890984 0.03694127
-0.13678093 0.066683434 -0.054617986 0.19109096 -0.064636275 -0.023955703 -0.01198175 -0.060893018
0.040802743 -0.0031508848 -0.1524003 -0.054351866 -0.0058940733 -0.020766143 0.0011122547 0.050481595
-0.006068783 -0.0257134 -0.18137911 -0.15198857 0.03520203 -0.094758354 -0.1597094 -0.04446887
-0.09825944 0.0032405048 -0.14684126 0.015558954 0.03159391 -0.043718606 0.008610356 -0.15092155
-0.12841003 -0.1282325 0.0026639674 -0.14903823 -0.031694043 -0.041992757 -0.060706038 -0.010505317
-0.0553276 -0.065616846 -0.10748986 -0.10080083 -0.04371664 -0.018580163 -0.030320674 -0.08024545
-0.030413385 -0.056367777 -0.14027464 -0.11212961 -0.023020282 0.11181344 -0.17754768 0.057633486
-0.010956651 -0.05519225 -0.025355134 -0.12206676 0.012535428 -0.14683813 -0.15002622 -0.018503586
-0.12527749 -0.1336707 0.006066658 -0.13029705 -0.006093415 -0.04566505 -0.025719374 0.0145858005
-0.08618249 0.01583872 -0.05435098 -0.04537581 -0.031921227 -0.04126907 -0.124460995 -0.05443736
0.025036402 -0.07441168 -0.0073381714 -0.057594012 0.009602457 -0.07569331 -0.032356363 -0.13682528
-0.013853717 0.040421806 -0.056774385 -0.009827054 -0.12034095 0.01659664 -0.15238157 -0.059148785
-0.001585201 0.0038719412 -0.097695716 -0.15500711 -0.13361518 -0.09151971 -0.13536285 -0.1287092
-0.066044964 -0.11939023 -0.040282104 0.007416131 -0.17716616 -0.07036402 0.05238777 -0.07562261
0.019776702 -0.13912557 -0.15561229 -0.01954744 0.010974842 -0.10008519 -0.20076543 -0.10876988
-0.13571241 -0.079329595 -0.06584325 -0.03860298 0.00034496232 -0.12554234 0.006224573 -0.071476385
-0.007572585 0.04789017 -0.1688747 0.2221872 -0.066548854 0.011173755 -0.0036034167 -0.1488458
-0.14857635 -0.06837257 -0.15495212 -0.11624632 -0.04924331 0.07945358 0.027740948 -0.13880211
-0.14894384 -0.1360881 -0.01346345 -0.11991238 -0.11771094 -0.13975614 -0.1064489 -0.15857157
-0.015560967 -0.15501976 0.021211302 -0.16387539 -0.10935919 -0.09297117 -0.03502005 0.0032546034
-0.05538753 -0.14471766 -0.08296222 0.0020960926 -0.00747107 0.07171216 0.10142621 -0.055562507
-0.07385413 -0.03501076 -0.0029894267 0.020178491 -0.05305772 -0.09810841 -0.017279545 -0.059248857
-0.057499174 -0.18112315 -0.094101995 -0.1691468 -0.09141865 -0.079585806 0.062264714 -0.091854095
-0.16668855 -0.10632088 0.004375695 -0.12823088 -0.039714158 0.0072149523 -0.06878397 0.027420452
0.009808565 -0.124465965 0.27837718 -0.0060344976 -0.14804557 -0.124917485 -0.07172206 -0.1252581
-0.08619994 -0.16248561 -0.064670786 -0.032332513 -0.009191771 0.011589585 -0.12682593 -0.06401163
-0.15639913 -0.038514942 -0.033896618 -0.1275761 -0.12593478 -0.047477186 -0.06916381 -0.14600718
-0.117486686 -0.050082866 -0.15602304 -0.0076023326 0.09658604 -0.13881375 -0.15136802 -0.11794418
0.046288244 -0.12984 -0.07158176 0.09297514 -0.017022116 -0.04308494 -0.059471816 -0.02369812
-0.118172124 -0.10368568 -0.10461167 -0.15325882 -0.09091374 -0.114435196 -0.012761703 -0.15827376
0.03507662 -0.13633046 -0.17469528 -0.06258697 0.05535848 -0.12197537 -0.010040649 -0.17287059

deep.2.weight f4 [512]
00000000: 99fa 8e3f 26bf 783f 0223 6b3f 0ceb 703f
00000010: d023 713f f6d4 6a3f 919a 413f 1d7c 833f
00000020: efda 853f 2839 763f 7dae 813f 7e78 6f3f
00000030: bcde 733f b92e 813f 0d43 783f f649 533f
00000040: 8faa 883f 67f3 773f 416e 793f 19d1 783f
00000050: 4cc1 883f ff08 833f 526f 663f 5dd6 8b3f
00000060: e3ba 823f 1424 853f 2ed9 783f 28ad 793f
00000070: 7b06 763f 0109 763f 26f5 803f 7ea7 833f
00000080: 4def 8c3f 39eb 683f 1539 803f 7fe0 803f
00000090: 51eb 823f 3071 693f 92e7 753f ff77 803f
000000a0: 93b9 7d3f 4d3c 873f 8c8a 873f 9310 853f
000000b0: 351e 853f 1231 843f c6ed 793f 2a14 833f
000000c0: befd 7e3f e963 8e3f 1323 613f 0537 813f
000000d0: 2ec9 753f 2617 843f 9a14 803f bb6c 8b3f
000000e0: 56b7 843f c11a 803f 9c0b 763f 9385 883f
000000f0: e9fa 4f3f d664 5b3f 8c68 733f 6cd8 773f
00000100: 4389 7e3f d6eb 7f3f 0d9c 753f 2a4a 723f
00000110: cdac 863f 1a1c 8d3f 6fea 833f e71d 7f3f
00000120: 002d 7f3f a4ab 833f 9efc 4f3f db50 873f
00000130: e5c3 873f 540c 923f 331f 833f e646 713f
00000140: 8e7a 803f bc98 4d3f 01ef 773f f1fe 723f
00000150: 57e0 873f 2cf4 793f c4bf 803f 84f7 683f
00000160: 53d7 823f 5ada 7f3f 466e 703f 5c1e 8f3f
00000170: 7e43 843f 98f6 843f a364 813f c461 893f
00000180: c7ab 863f dcca 603f 27be 6b3f 8318 823f
00000190: 3ffc 883f 9f3f 693f fd3a 883f dff3 813f
000001a0: 460b 863f 58d2 853f d8f4 7d3f a34b 7b3f
000001b0: fc0b 813f b706 833f c8b6 893f 9e01 5f3f
000001c0: 5c2d 833f bba3 793f d018 883f 11c7 803f
000001d0: 97ca 843f 53bb 843f b41f 843f f8c4 743f
000001e0: 6561 803f 6d72 6b3f ab59 693f 3733 843f
000001f0: 707c 753f c43a 773f 3011 7b3f 8b71 773f
00000200: 01e9 7a3f 9da9 973f 04ba 693f 7076 713f
00000210: 7d76 923f 349b 7d3f 4abe 7b3f 23f2 893f
00000220: b2e6 6e3f 9d1e 5c3f fb3f 923f 8b03 623f
00000230: 9419 763f d67d 593f 6201 8a3f e016 723f
00000240: a7bb 7e3f 4bb6 773f 8243 7a3f 155c 8e3f
00000250: 7194 813f e559 433f 7c03 8a3f 622a 913f
00000260: c142 903f 0b7e 843f 7f58 7e3f 94d8 803f
00000270: add0 743f aadc 7b3f 16b9 733f 74de 783f
00000280: 8f7d 723f eec0 7f3f ad11 8c3f 21c7 7d3f
00000290: 6bf5 6f3f e603 633f 57d3 6d3f 2936 8e3f
000002a0: abfb 7b3f a688 883f d16a 873f ea0e 843f
000002b0: 62e9 7f3f 53a8 603f 1a0a 573f 3b77 8b3f
000002c0: 5981 7c3f 7d44 7e3f ef09 823f 8135 833f
000002d0: a9f5 723f 07b2 813f 14ff 8c3f c219 873f
000002e0: 5ddb 8d3f 6280 633f d350 853f e570 843f
000002f0: 735f 853f a6f4 8e3f 10a5 603f acfb 5c3f
00000300: 2439 6f3f 3b71 843f f794 883f abf4 883f
00000310: cf4f 873f fd30 883f b2a2 7f3f 912a 8a3f
00000320: 4984 623f 2a09 7f3f cbcf 6b3f 59b4 8b3f
00000330: 6da5 893f 52c4 833f a8b0 8c3f b8d1 783f
00000340: 35ca 813f b952 6d3f a653 643f d807 873f
00000350: f4e6 823f ddf2 853f 6827 7f3f afd4 823f
00000360: 6a4c 753f 2745 7d3f 7095 833f 7e78 853f
00000370: 2db2 833f 59b4 743f 5c77 853f d542 583f
00000380: 7dfc 6b3f f215 863f d5eb 8d3f 01b0 843f
00000390: 77af 493f 51e3 803f fbe7 6d3f 04d7 773f
000003a0: 62f7 893f a185 793f d4ca 833f d585 713f
000003b0: 25a1 473f f238 7a3f a7dc 813f f5e4 6a3f
000003c0: 32b8 913f 8546 7d3f c1a2 7d3f d745 873f
000003d0: 60b8 803f b4e8 7d3f 0f67 7f3f 9c1c 873f
000003e0: 89ca 4e3f 2ba5 843f 365d 903f d47d 5f3f
000003f0: 5a7a 763f c317 843f e296 883f 63c9 803f
1.1170226 0.9716667 0.9185029 0.94108653 0.9419527 0.917312 0.75626475 1.0272251
1.0457438 0.96180964 1.0131375 0.9354323 0.9526174 1.0092384 0.9697731 0.8253473
1.067705 0.9685578 0.9743386 0.9719406 1.068399 1.023712 0.9001361 1.0924793
1.0213283 1.0401635 0.9720639 0.9752984 0.9610364 0.9610749 1.0074813 1.028549
1.1010529 0.9098392 1.001742 1.0068511 1.0228063 0.91188335 0.96056473 1.003662
0.9911129 1.0565277 1.0589156 1.0395683 1.0399843 1.0327475 0.9762844 1.0240529
0.9960593 1.112424 0.87944144 1.0094916 0.960101 1.0319564 1.0006287 1.0892557
1.036845 1.0008165 0.96111465 1.0665764 0.81242234 0.8570074 0.950814 0.9681461
0.99428195 0.9996923 0.9594124 0.94644415 1.0521485 1.1024201 1.0305918 0.99655
0.9967804 1.0286756 0.8124484 1.057155 1.0606657 1.1410012 1.0243896 0.9424881
1.0037401 0.8031118 0.96849066 0.9492026 1.0615338 0.976382 1.0058522 0.9100268
1.0221962 0.99942553 0.93918264 1.118114 1.0333097 1.0387754 1.0108837 1.0732961
1.0521172 0.8780954 0.92087024 1.016373 1.0701979 0.91112703 1.0643002 1.0152549
1.047219 1.0454817 0.99201727 0.9816229 1.0081782 1.0236424 1.0758905 0.8711184
1.0248218 0.9751546 1.0632572 1.006075 1.0374326 1.0369667 1.0322175 0.9561305
1.0029722 0.91971475 0.9115245 1.032813 0.95893 0.96574044 0.980731 0.9665763
0.98011786 1.1848637 0.9129946 0.94321346 1.144241 0.99064946 0.98337233 1.0777019
0.93320763 0.8598421 1.1425775 0.88286656 0.9613278 0.84957635 1.0781672 0.94566154
0.99505085 0.9676253 0.9775926 1.1121851 1.0123426 0.76309043 1.0782313 1.1341059
1.1270372 1.0350965 0.99353784 1.0066094 0.95630914 0.9838358 0.95204294 0.97214437
0.9472284 0.9990376 1.0942894 0.9913197 0.93733853 0.88677824 0.92900604 1.1110278
0.9843089 1.0666702 1.0579473 1.0317051 0.9996549 0.8775684 0.8399979 1.0895761
0.9863487 0.99323255 1.0159281 1.0250703 0.949061 1.0132455 1.1015344 1.0554736
1.1082569 0.8886777 1.041529 1.0346953 1.0419754 1.1168411 0.87751865 0.8632152
0.93446565 1.0347055 1.067046 1.0699667 1.0571231 1.063995 0.9985763 1.079424
0.884831 0.9962336 0.9211394 1.0914413 1.0753609 1.0294287 1.0991411 0.97195005
1.0139834 0.9270435 0.8919014 1.0549269 1.0226731 1.0464741 0.99669504 1.0221156
0.95819724 0.98933643 1.027998 1.0427396 1.028875 0.9558769 1.042705 0.8447698
0.9218214 1.0475447 1.1087595 1.0366212 0.78783363 1.0069371 0.929321 0.9681246
1.077862 0.97469527 1.0296273 0.94344836 0.7798026 0.9774314 1.0145463 0.9175561
1.1384337 0.9893573 0.9907647 1.0568188 1.0056267 0.991832 0.9976663 1.0555606
0.80777794 1.0362905 1.1278446 0.87301373 0.96280444 1.0319752 1.0671046 1.0061458

deep.2.bias f4 [512]
00000000: 89ca 95bd 4cd3 873e dcd7 643e 3601 313e
00000010: 6aa8 14bd 203c 503e cae2 38be bc67 b43d
00000020: 6350 163e 243b cabd 209b 043e b812 22be
00000030: 21d2 7f3d 471d 593e 569e 90bd 3a22 6bbd
00000040: caa9 e03d c78b e13d 1be9 413e c377 b03e
00000050: 4c7b 283d e6cf 843d 8c22 bb3d 7139 cfbd
00000060: 2f1b 9c3e 5412 843e 570b 8e3c b6b2 8cbc
00000070: 9c44 c73d 95cc 9d3e c452 043d ac5d 1ebd
00000080: be92 083e 7771 2e3e ae8c 9a3d 5f14 2d3e
00000090: 6cf8 1abd 1033 233e ce52 9fbc cdc3 b33d
000000a0: afb8 14be 365f 643e dcb1 333e a0ab 4f3d
000000b0: cbf1 c53d 320c c63d 9b52 963e b130 9cbc
000000c0: 207e a53e 5279 733e fb1d 7dbd 8e66 ffbd
000000d0: 8d0e 993d b05b e43c f556 913e 4a51 333e
000000e0: 5e49 213e eb59 7f3d 51ee 583e 1f79 973d
000000f0: 6cf4 6f3e 4373 cabe 4518 e03d 9ed5 093e
00000100: 2e92 883d a413 06be db6f f43d 358f 143d
00000110: 9aed 973d add9 c63d 4408 bb3d 7fcb d43d
00000120: 5cd0 cdbe 9e49 1c3e 174e 623e 2f26 bf3d
00000130: 4b9b 453e 8181 173e 6c64 f13d 8ec2 d53d
00000140: c8b0 7f3d 09e6 a9be 2a96 47be 8572 133e
00000150: 464d 8a3e 8384 f4bd 319e e63c 0ac3 293d
00000160: 3a5d e7bd 2620 383d d9aa 273c 54f6 0b3e
00000170: 7660 2fbe eb99 82bd 2b1c 063e 1900 743e
00000180: 94c4 d4bc 437f 503e 4357 05be 2dfe 2dbd
00000190: 6d34 1a3e 862b dc3d eafb 093e 36a5 e43d
000001a0: 062c d6bd a95c 363d 83ad 0f3e d8da 9bbd
000001b0: 5985 053e 3e73 d03d 03b1 2c3e 4bce 533e
000001c0: ed6f af3d f9a0 adbd bf8e cbbb f0b2 113e
000001d0: d610 953e 046b 563e 9ed0 80bc 87c6 47bd
000001e0: c980 153e 0078 9d3e e773 a9bb a359 9e3c
000001f0: 0f7e 18bd ed0a 933d f42d 8d3c af91 373b
00000200: 8014 e6bd 4483 283e 745f 31be 0fbc 9f3d
00000210: d1a7 1f3e 6cd4 adbd f3d9 733e 9375 b3bc
00000220: 5dcc 993d 2c16 a53d e3a4 9c3d 0b10 56be
00000230: 2c45 29bd 1d1f 753e 4381 373e 9527 a5bd
00000240: 2db2 003e dc91 d6bc a067 e73d f217 fcbd
00000250: f6f9 73bd 790a 643d 2c52 033d 94fd 863e
00000260: dda5 883d 53af 84bb 3eb6 823e a6a1 6bbe
00000270: 4688 9f3d 214a a2bd 63d5 7a3e de41 3a3e
00000280: 146e 74be b005 233e e482 06be 2230 debc
00000290: 0d0d 0f3d 4af7 1fbe 97b7 363d 37e1 9f3e
000002a0: 4a66 7e3e 536e a13d 0417 cabc b090 423d
000002b0: 2426 6e3d 3d53 843e 5ee4 a0be 8e93 f73a
000002c0: 689f 8bbd c50e 353e e6c7 963d e21b 9b3d
000002d0: 2d3b 7c3e 10b7 423e 7707 3e3e d147 b13d
000002e0: bc81 2b3e 61db 653d 90e3 093e c313 da3d
000002f0: 5bfb 843e 7f92 c83d 1869 193d 47b8 1f3e
00000300: 5c6f 20bc 50ac ef3b 72aa fa3d d8ad 493e
00000310: d77f fa3d 350f fc3d 31ef 043e 92d0 8b3d
00000320: 73fb e5bd 106b bd3b 0a9d 6abe 50f7 3d3d
00000330: 424e 113e e6df 12ba fd51 503e 9909 b33d
00000340: dcea 733e 065f 9cbd e3fe 353d b5a5 913e
00000350: d80f a2bc c918 51bb 114a 1c3d d5e1 cb3d
00000360: c6c1 973d c8d3 2c3d 0021 093e ad64 a43d
00000370: eecb 233e 2e09 203e c0fa 073e 0c36 853d
00000380: 0469 623d a16b 4c3e bcc2 1f3d dda8 493e
00000390: 795b 51be 9209 663e e158 7fbc 2270 883e
000003a0: 26f3 9b3d e4b7 95bd 44c7 1e3e 2d71 a03e
000003b0: b18e 26bc 2ebe c43d a5dc 803e c7ad 5e3e
000003c0: 66c3 543e 0cb5 223d 273c 573d 91d1 383e
000003d0: d3f7 d63d 8090 e33d 817e e83d ae28 fd3b
000003e0: 3a7b 69bd 12cc 183d f653 24be 4415 27be
000003f0: e461 603d b4c3 c63e 6d59 5c3d fdfc ea3d
-0.07314021 0.26528394 0.22347969 0.17285618 -0.036293425 0.20335436 -0.18055263 0.08808848
0.14679103 -0.098745614 0.129498 -0.15827453 0.062456254 0.21202575 -0.0706145 -0.057405688
0.10969885 0.110129885 0.18936579 0.3446637 0.04113321 0.06484966 0.09137449 -0.10118378
0.3048949 0.25795233 0.017339392 -0.01717506 0.09729883 0.30820146 0.032305494 -0.03866355
0.13337228 0.17035471 0.07546364 0.16902302 -0.03783457 0.15937448 -0.019448664 0.087775804
-0.14523576 0.22301945 0.17548317 0.050700784 0.09665259 0.09670295 0.29359898 -0.019066187
0.32322788 0.23776749 -0.06179617 -0.12470733 0.074734785 0.027875751 0.28386655 0.17511478
0.15750644 0.06234161 0.2118466 0.07396149 0.23433083 -0.39541063 0.10942129 0.13460395
0.066685066 -0.1309343 0.11935397 0.036269385 0.07418366 0.09709487 0.09132436 0.10390376
-0.40198028 0.15262458 0.22100101 0.09333455 0.19297521 0.14795496 0.11786732 0.10437499
0.06242445 -0.33183315 -0.19490877 0.14399154 0.2701208 -0.11939337 0.028151603 0.04144577
-0.112970784 0.044952534 0.010233604 0.13668185 -0.1712664 -0.06377014 0.13096683 0.23828162
-0.025972642 0.20361046 -0.13021569 -0.04247873 0.15059061 0.10750489 0.13475004 0.11164324
-0.104576156 0.04452196 0.14031033 -0.076101005 0.1303915 0.10178231 0.168644 0.20684163
0.0856627 -0.08477969 -0.006212085 0.14228415 0.29114407 0.2093926 -0.015724476 -0.048773315
0.14599909 0.30755615 -0.0051712873 0.019329851 -0.037229594 0.07179818 0.017233826 0.0028010418
-0.11234379 0.16456324 -0.17321569 0.07799541 0.1559136 -0.08487782 0.2381361 -0.02190665
0.07509682 0.080608696 0.07648637 -0.20904557 -0.041325733 0.2393765 0.17920403 -0.0806419
0.12567969 -0.026192598 0.11299062 -0.12309255 -0.059564553 0.05567405 0.032060787 0.2636534
0.06672261 -0.0040492206 0.25529665 -0.23010883 0.07789664 -0.07924295 0.24495463 0.18189189
-0.23870116 0.15920138 -0.13135868 -0.02712256 0.034924556 -0.15621677 0.04460868 0.31226513
0.24843708 0.07882371 -0.024669178 0.047501266 0.058141842 0.25844756 -0.3142423 0.0018888579
-0.06817514 0.17681415 0.07362346 0.075736776 0.24631949 0.19015145 0.18557535 0.08656276
0.16748708 0.05611742 0.13465714 0.106483005 0.2597302 0.09793567 0.03745374 0.1559764
-0.009792175 0.0073142424 0.12239541 0.19695222 0.12231415 0.12307588 0.1298187 0.06826891
-0.11229601 0.005780585 -0.22911468 0.046378434 0.14190009 -0.00056028215 0.20343776 0.08742065
0.2382006 -0.07635312 0.044432532 0.28446737 -0.019782946 -0.0031905642 0.038156573 0.099551834
0.07410006 0.042194158 0.13391495 0.08027015 0.15995762 0.15628502 0.13279247 0.06504449
0.055275932 0.19962932 0.039004073 0.19693322 -0.2044505 0.22464588 -0.015585155 0.2664805
0.07614736 -0.07310465 0.15505701 0.31336346 -0.010165856 0.096065864 0.25168338 0.21745978
0.20777664 0.03972344 0.0525476 0.18048693 0.104964875 0.111115456 0.11352254 0.0077257967
-0.057002284 0.03730399 -0.16047654 -0.16316706 0.054780856 0.38821185 0.05379622 0.11474035
